models_stacking/mlp_torch_model.pt (torch, 235250 bytes, 21 tensors)

model.0.weight f4 [256, 45]
000000 f7 35 9b 3e c9 5d 38 bf 70 cc 88 3d 51 9c eb 3e
       0.3031461 -0.72018105 0.06679618 0.46017697
000010 b1 f6 a1 bd 87 a7 74 3e 5f ba e2 3d 72 a6 06 3e
       -0.07908381 0.23892032 0.11070704 0.13149431
000020 e5 9e 8d bf f4 e8 75 bc 3c 14 98 be c7 ed 98 bf
       -1.1064116 -0.015009154 -0.29702938 -1.1947564
000030 69 59 51 3d 96 0d 00 bc 30 03 89 be 2f 49 e7 bb
       0.05111066 -0.007815739 -0.26760244 -0.0070582847
000040 fe d7 c3 3d 03 27 ae 3d 89 9a 18 be cc a5 1c 3e
       0.095626816 0.08503535 -0.149027 0.15297621
000050 10 32 8e 3e 55 90 71 3d 7e 4f f2 3d 8f f4 15 3f
       0.2777257 0.058975536 0.11831568 0.5857629
000060 4f dc e1 bd 15 51 3d 3f 5f d9 99 be a4 a1 50 3e
       -0.11028349 0.73951846 -0.30048653 0.20374161
000070 fd a1 55 be c1 f1 39 be 71 60 b5 be d0 87 3c 3d
       -0.20862575 -0.18158628 -0.3542514 0.04602796
000080 1a 86 df 3d 40 e4 8d bd c1 65 05 3e d7 95 ee bd
       0.1091425 -0.06928301 0.13027097 -0.116496734
000090 10 b5 8c 3e 4c 22 81 be be 4e bf bd 02 d2 e0 be
       0.2748189 -0.2522148 -0.09341191 -0.43910223
0000a0 36 31 7d 3d 39 30 3c bd fa 42 f1 bd 98 9e 82 3e
       0.06181451 -0.045944426 -0.11780353 0.25511622
0000b0 bf 4d ff bd 96 29 ee be fb 7a 7d 3f a4 29 a3 3e
       -0.12466001 -0.46516103 0.9901578 0.31867707
0000c0 1b bd 5f 3e 99 e5 8e 3e ef a2 32 be 3d 1f 8b 3d
       0.21849482 0.27909544 -0.17444967 0.067930676
0000d0 b1 a2 20 bf ac 60 39 3e 69 7e 03 3f 63 cc a9 3d
       -0.6274825 0.18103284 0.5136476 0.08290937
0000e0 67 d2 26 bf 10 f0 fe bd c6 71 9f 3c 0c a3 ad 3e
       -0.651648 -0.12448132 0.019463431 0.33913457
0000f0 c9 f4 e5 3e 6e 21 04 bd cf c3 1e 3b c9 b0 34 3b
       0.4491332 -0.032258444 0.0024225598 0.0027571192
000100 b5 f3 a2 be 8f eb a2 be 1c 0e cc 3e d3 d0 1b be
       -0.3182656 -0.31820342 0.39854515 -0.15216379
000110 61 cb fe bd 77 a1 eb 3d 4b 97 2a 3f 52 04 f2 bd
       -0.12441135 0.11505406 0.66637105 -0.1181723
000120 18 75 43 3e 1d de 66 3e 56 5e 1e be f6 f9 b3 bd
       0.19087636 0.22545667 -0.15465674 -0.08787911
000130 ff 6d 60 be 10 57 09 3e f1 e2 8a be ad 62 83 3e
       -0.2191696 0.13412118 -0.27126268 0.2566122
000140 41 9d f9 bd bc 62 ec bc 93 1a 46 3d cd 8e 5e be
       -0.12188197 -0.028855674 0.048365187 -0.21734162
000150 6d df ef 3d d5 1f a8 be d4 64 ee 3d 68 83 81 be
       0.11712537 -0.32836786 0.11640325 -0.25295568
000160 81 e0 eb 3d cf 0d 83 bc 1a a5 4a bf 14 25 c4 3e
       0.1151743 -0.015997795 -0.79158175 0.38309538
000170 f3 d7 dd 3e 7f 36 80 be f5 ce 3d be d7 d9 47 3e
       0.4332882 -0.25041577 -0.18535979 0.19516693
000180 ae ee ac bd 94 3e 81 bd 29 66 ca 3e 31 f9 e3 be
       -0.08443962 -0.06310764 0.39531067 -0.44526055
000190 94 48 0f be 42 0b a0 be 72 0f 83 3e 6b 45 d8 be
       -0.1399253 -0.3125859 0.2559772 -0.42240462
0001a0 45 65 a2 be c4 36 73 bf b7 11 72 3b 01 53 03 be
       -0.31717888 -0.9500544 0.0036936828 -0.12824632
0001b0 5c ca a8 3c 95 4d a2 3c 7c 29 b6 3c c2 1e 01 3e
       0.020604305 0.019812385 0.022236578 0.1260939
0001c0 00 03 0b 3e 0d 87 00 3e 85 5f 6a 3d f0 a9 49 3f
       0.13575363 0.12551518 0.05722 0.7877493
0001d0 1d 87 e6 3c 0a 9d f4 be 84 7e ac 3e 71 82 cf 3e
       0.028140599 -0.4777606 0.33690274 0.40529206
0001e0 d7 f9 04 be f1 d2 0f bd 73 61 4a 3d d6 e8 33 bd
       -0.12985931 -0.03511328 0.04940934 -0.04392322
0001f0 82 c8 be bd 4a 0b ed 3d 70 58 8d be 6d b0 1d 3e
       -0.093155876 0.11574419 -0.27606535 0.15399332
000200 ae 18 06 3f 83 f8 16 be 62 de da 3d f0 ae 78 3d
       0.5238141 -0.14743237 0.106869474 0.06071371
000210 ee 2f e3 3d 73 8e 90 3c 0d a8 d5 ba 4c 3b b2 3e
       0.11093126 0.01764605 -0.0016300693 0.34810865
000220 0e 04 52 3f 0d 7b e6 bd 6d a7 06 be d9 99 c5 3c
       0.82037437 -0.11253939 -0.13149805 0.024121212
000230 7d 32 6e bf 70 ea 13 3f ae ca 6d bd 14 31 2e 3d
       -0.9304579 0.577796 -0.05805462 0.042527273
000240 5a 8c 25 3e f6 8f 81 be 71 cf 17 3e c9 3e 22 be
       0.16166821 -0.25305146 0.14825226 -0.15844263
000250 7f 52 0c be 46 38 60 3f 75 9c 2a 3f 34 36 1a be
       -0.13703345 0.87585866 0.66644984 -0.1505974
000260 df 39 8b 3e 59 fe 98 3d a9 88 35 3e 08 1b 82 3e
       0.2719259 0.07470388 0.17727913 0.25411248
000270 6a 19 0f 3e 7e 64 4c be a5 14 35 3e 0f 67 02 3f
       0.13974538 -0.1996021 0.17683657 0.50938505
000280 a9 53 0c 3f 89 9a 47 be de 92 82 be d8 6b 80 3e
       0.54815155 -0.19492544 -0.25502676 0.25082278
000290 c2 4c 11 3e ec 1d b3 3d 03 a5 62 ba d6 d5 dc 3d
       0.14189437 0.087459415 -0.00086458045 0.107829735
0002a0 67 8f d0 bd 01 49 e1 3d 9e 59 1e 3d 24 f3 d5 be
       -0.10183602 0.110002525 0.038659684 -0.41787064
0002b0 ef 7d 94 3d f8 a3 2c 3e 8b da ec 3c f6 5f 61 3d
       0.072505824 0.16859424 0.028912803 0.055023156
0002c0 f2 36 96 3c 00 02 0b 3d e7 56 63 3b 48 d0 e8 3d
       0.018336747 0.033937454 0.003468925 0.113678515
0002d0 df 50 78 bd 24 26 5b 3e c6 35 d4 bd 17 57 ea bd
       -0.060624 0.21401268 -0.10361819 -0.11442392
0002e0 87 41 30 be e1 44 12 bf 33 ad 49 3f 4a d1 e1 3d
       -0.17212497 -0.5713635 0.78779906 0.11026247
0002f0 fa b6 9a be c6 9f a1 bf c6 c9 e4 3d 7f c0 08 3e
       -0.30217725 -1.2626884 0.11171298 0.13354681
000300 79 c3 d0 3d e5 17 f7 3e d7 40 c2 3e 68 f1 20 bf
       0.101935335 0.48260418 0.37940094 -0.62868357
000310 98 59 1b be 3b c6 52 3d 5e 20 cf be e5 44 e0 3d
       -0.15170896 0.05145858 -0.40454382 0.109506406
000320 b0 98 99 3e f7 cf c8 be de 17 21 be b5 36 aa be
       0.29999304 -0.39221165 -0.15731761 -0.33244863
000330 4b eb 30 3e a1 cf ce 3e ae 5a 04 3f df ab 6c 3e
       0.17277257 0.40392783 0.51700866 0.23112439
000340 3b 7a 61 bd b7 7a 1f 3e 5d 25 16 3c 5f b2 3a 3e
       -0.05504821 0.15574156 0.009164182 0.18232106
000350 dd 7f 60 3e 8e 93 8f bd 31 8f 86 be d1 b4 5d 3e
       0.21923776 -0.07010566 -0.2628112 0.21651007
000360 2a b5 22 3e ca 61 04 be 1c c5 83 3e 84 1f 25 3d
       0.15889421 -0.12927929 0.2573632 0.04031326
000370 f5 78 87 3e 5e a0 29 3d 1a 1f 0e be 0c b2 3c be
       0.2645947 0.041412704 -0.13879052 -0.18427294
000380 c0 e8 67 3c 61 3b 93 3e bd c5 0b bf ff c4 c2 3e
       0.014154613 0.2875624 -0.545986 0.3804092
000390 9a 48 8b 3f 4e b0 04 3e 8c 64 d9 bd a7 3b 1b 3e
       1.0881531 0.1295788 -0.10614881 0.15159474
0003a0 65 47 85 3e e0 64 2a bf c5 a7 28 be d1 2f a9 3e
       0.26031032 -0.66560173 -0.16470249 0.33044294
0003b0 1b 43 4f be a2 0f a1 bd 9d e3 48 3f b6 1e 36 3e
       -0.20240442 -0.0786431 0.7847231 0.17785153
0003c0 8f af b9 be e4 06 8f bc 27 1b a4 bd 96 2a a4 3e
       -0.36266753 -0.01745934 -0.080129914 0.3206374
0003d0 2c e7 c0 bd 0d f3 f5 bd 88 69 8a be ba 83 33 be
       -0.094190925 -0.12009249 -0.2703364 -0.17530718
0003e0 17 f6 c4 be 78 6f a7 bd ff ed 1b 3f 62 e4 36 be
       -0.38469002 -0.08175558 0.6091003 -0.17860559
0003f0 ae 6d ce 3d 9b 80 b9 bc 7f 96 46 3d 40 35 2c bd
       0.100795135 -0.022644332 0.048483368 -0.04204297

model.0.bias f4 [256]
000000 40 33 1c 3f 34 f7 e3 3c 66 20 7f be 2e 60 cf 39
       0.610157 0.027827837 -0.24914703 0.00039553776
000010 93 14 81 3e 20 8c 81 3e 3c 57 45 3f f0 9f 0d 3e
       0.2521101 0.2530222 0.77086234 0.13830543
000020 a1 33 c4 be 04 f8 a9 3e 6f 2a 2a bf 87 61 af 3e
       -0.3832064 0.33197033 -0.66471 0.34254095
000030 5f 71 87 3e 42 d5 72 bf e4 dd e3 3d 9c 6f 3f bf
       0.26453683 -0.94856656 0.11126307 -0.7477968
000040 3f c6 48 bf e9 4a 5e 3e b5 13 03 be 90 bd c9 be
       -0.784275 0.21708263 -0.12800486 -0.39402437
000050 46 fe f4 be 91 e4 1c bf a3 db b0 3e 46 ae a8 3d
       -0.47850245 -0.61286265 0.3454257 0.08236365
000060 92 02 b8 be 76 4c 57 3e 07 51 95 3e f9 2a b8 be
       -0.3593946 0.21025261 0.2916338 -0.35970286
000070 e2 3d ec be 9d c9 e4 bd e9 b1 ae 3e 32 83 15 bf
       -0.46140963 -0.11171267 0.3412011 -0.58403313
000080 cc 85 00 3f 47 7c 3c bf 45 6f c4 be 3c 25 3b be
       0.5020416 -0.7362713 -0.38366142 -0.18275923
000090 25 b2 2f be 1c 21 09 be b0 72 af be a3 6d 5c bf
       -0.171578 -0.13391536 -0.34267187 -0.8610479
0000a0 c6 b0 87 bf c0 32 b1 3d f4 f1 4c bf 70 7f f9 3e
       -1.0600822 0.08652258 -0.8005669 0.4873004
0000b0 56 ba 02 be 48 fb 88 3e e9 0e 83 3e dd 93 bb bc
       -0.12766394 0.26754212 0.25597313 -0.022897655
0000c0 c4 59 67 bf ad 4d ff bd 79 0a d4 be 9d ed 35 3d
       -0.90371346 -0.12465987 -0.4141424 0.04441606
0000d0 88 48 11 be 4b 14 2a bf 68 2b ee 3e 50 8a f0 bc
       -0.14187825 -0.66437215 0.4651749 -0.029362828
0000e0 87 74 2d 3e c3 db 12 bd 6d 8f 95 be 91 a3 23 bf
       0.16938983 -0.035854112 -0.29210988 -0.6392146
0000f0 0a a2 ff be d5 35 2b be 93 13 6a bf 9c 1e c0 3e
       -0.49928313 -0.16719754 -0.9143612 0.37523353
000100 5d cb ee be a0 56 ab be 3a d6 df 3e 55 2e 8e 3e
       -0.4663953 -0.33464527 0.4371813 0.27769724
000110 43 03 e0 3e ab c6 7d 3e c8 6f bb be 80 d9 e9 3e
       0.43752488 0.24782817 -0.3660872 0.45673752
000120 f1 a9 ec 3d 04 83 41 3e 83 8d ab 3e 16 c8 c5 bd
       0.11555851 0.18897635 0.33506402 -0.09657304
000130 d5 2c 59 bd 89 0d 4a be 0e 6e bc 3e fa 40 ea 3e
       -0.05302127 -0.19731726 0.36802715 0.45752698
000140 b7 6c a1 bf 88 66 fd 3e c8 46 ae bd e4 01 da 3c
       -1.2611302 0.49492288 -0.08509594 0.02661223
000150 34 db 08 3e 74 89 18 bf f9 9b 26 bf a5 63 bc bf
       0.1336487 -0.59584737 -0.65081745 -1.4717909
000160 be 0f 77 be 15 63 04 3f 33 e3 97 3d 59 57 6b 3e
       -0.24127099 0.5171369 0.07416382 0.22982539
000170 d4 4e 08 bd cd 2b a5 3d c0 fa 20 3f f6 0a c2 be
       -0.0332783 0.08064995 0.62882614 -0.37898988
000180 d7 c2 18 3f f0 e9 c9 3d c8 c4 0b bf 87 f9 5b bd
       0.596723 0.09859073 -0.5459714 -0.053704765
000190 de 57 c1 3c 4c 18 06 3d c2 57 19 3e 4f a6 cd bf
       0.023601469 0.032738015 0.14974883 -1.6066378
0001a0 fe 78 a4 bd ef 78 e6 bd e3 fe 28 3e 93 87 a8 3c
       -0.0803089 -0.11253535 0.16503482 0.02057246
0001b0 3f a2 05 3e 6d 4f f4 3e 91 d3 15 be 77 ca 32 be
       0.13050173 0.47716847 -0.14631487 -0.17460047
0001c0 cf 7d 07 3e f3 c7 58 be 52 75 a0 3e 45 ad 1a bf
       0.13231586 -0.21170025 0.31339508 -0.6042064
0001d0 46 2c a5 3e 7b 8e b2 be fe 7d 6e 3d c7 7c 21 3f
       0.3226034 -0.3487433 0.058225624 0.6308102
0001e0 31 1f 96 be d4 2f ad 3e 61 b1 03 3e 60 6c 86 bd
       -0.29320672 0.33825552 0.12860633 -0.0656364
0001f0 49 da 68 3e 6e 93 54 bf d3 33 84 be c6 7a 4f be
       0.22739519 -0.8303746 -0.2582079 -0.20261678
000200 82 0b 11 bf e2 ce fa 3e bd 75 05 3e 5c e2 8d be
       -0.56658185 0.48985964 0.13033195 -0.2771176
000210 33 a0 9d 3d 75 fe 4c bd 56 ec 86 bd ba 19 35 be
       0.07696571 -0.050047357 -0.06588046 -0.17685595
000220 30 4d 0d bf a1 90 a6 be 43 5f 6c be 1a a3 38 be
       -0.55195904 -0.32532218 -0.23083214 -0.18030968
000230 6e 95 ec be ed de a4 3e e7 3c a5 3e 3c 06 77 3c
       -0.46207756 0.3220133 0.32273027 0.01507717
000240 66 77 99 be 19 8d 26 bf 93 06 da 3e 4e 5b 50 be
       -0.29973906 -0.6505905 0.4258314 -0.2034733
000250 e1 b8 c6 3e 44 36 69 bf ac 69 9b 3e 91 8c 5c 3e
       0.38812926 -0.9109843 0.3035406 0.21537997
000260 4a a3 4c 3e 86 96 a7 3e 12 2b 04 bf 78 ff 5b bf
       0.19984165 0.32732028 -0.5162822 -0.8593669
000270 b3 5e 6d 3f e9 d2 23 3e c0 9b b6 bd e0 f7 f2 3e
       0.92722625 0.15998425 -0.08916426 0.4745474
000280 d9 50 f3 3d 63 15 23 3e ef 6d ba be 9b 17 18 3e
       0.11880655 0.15926127 -0.36411998 0.14852755
000290 56 f1 15 3f b8 c6 4c bf 79 d7 ad bf 36 b8 fc be
       0.58571374 -0.7999072 -1.3581382 -0.49359292
0002a0 b0 93 f4 3d bf e9 a2 3d 70 65 2f be d3 0f 21 3f
       0.11942232 0.0795474 -0.17128539 0.6291477
0002b0 6c 1e d4 bc 4c 4a f5 be 43 09 3d 3d 0e 98 9b be
       -0.025893413 -0.47908247 0.04615141 -0.30389446
0002c0 fe ec e7 be df 2c 72 be 36 a0 13 bd 51 15 a6 be
       -0.45297998 -0.2364993 -0.03604146 -0.32438138
0002d0 49 97 24 bf ec 9e 5a bd ed b6 99 be 53 01 b9 3b
       -0.6429334 -0.053374216 -0.30022374 0.00564591
0002e0 dd 6c a7 3e bd b1 94 3e 86 13 da 3e 9d bc 64 be
       0.32700244 0.29041854 0.4259302 -0.22337575
0002f0 89 78 d7 bc 7d 3a a8 be 18 5a 00 3e f4 64 c4 3e
       -0.026302593 -0.32857123 0.12534368 0.3835827
000300 65 ab 0f bf 2e 79 15 bf a9 5d 24 be 5e 4d 2b bf
       -0.561209 -0.5838803 -0.16051354 -0.6691493
000310 82 5a b5 3e d7 37 6b be 09 a9 ff be 7f f3 92 be
       0.35420614 -0.2297052 -0.4993365 -0.28701398
000320 19 91 da 3d 69 5d 0b 3e f2 b0 2e 3e 5d 9d 89 bd
       0.106722064 0.13609852 0.17059687 -0.06719468
000330 34 8b 14 3f ed 00 ab be 0d 80 c3 be 9b 4a 05 bf
       0.5802491 -0.33399144 -0.38183632 -0.52066964
000340 1b e4 a3 bd 24 10 00 bf 0f 06 11 be 5d c7 ef bb
       -0.08002492 -0.5002463 -0.14162467 -0.007317467
000350 e0 7e 81 3e 3f ff 0d 3f 71 1d 5e 3c 28 0e fd be
       0.2529211 0.554676 0.013556824 -0.49424863
000360 96 47 69 bf 8c ef ac 3d 47 ea 7a bf 26 9f aa 3d
       -0.91124856 0.084441274 -0.9801373 0.083311364
000370 12 4c 00 3e 6a 29 2b be 07 d5 ba be 1e fe 22 be
       0.12529019 -0.16715017 -0.36490652 -0.1591725
000380 4e 18 d9 3d 40 09 07 bf a5 15 2d 3d 76 2b 62 bf
       0.10600339 -0.5274849 0.04225697 -0.88347566
000390 00 e7 c6 3e 74 57 3a bf 75 b0 96 bd 25 6c a2 be
       0.38848114 -0.7278969 -0.07357875 -0.31723133
0003a0 56 01 bb be 0e 10 ad bd bf 55 bb be 0f fe 5c bd
       -0.36524457 -0.08450328 -0.36588857 -0.053953227
0003b0 ea 7b 7c be 5e 7e be 3e f8 0f 25 bf 26 9e 5d be
       -0.24656644 0.37205786 -0.6447749 -0.2164236
0003c0 9e 7c 97 3e 6a 64 e6 be a0 65 92 3e f4 d9 d1 3e
       0.29587263 -0.44998485 0.2859316 0.40986598
0003d0 f0 41 0f bd a7 d1 1d be e3 10 a5 3e 7d 33 14 bf
       -0.034974992 -0.15412007 0.32239446 -0.57891065
0003e0 7f 14 34 be b0 ed 43 3d a5 25 68 bf 53 3e b4 3e
       -0.17585944 0.0478341 -0.9068244 0.352038
0003f0 3e 5a 5d 3c be 95 f6 bc 43 82 2b 3e cc 75 5f 3e
       0.013510285 -0.0301007 0.1674891 0.2182228

model.1.weight f4 [256]
000000 36 c1 3a 40 2a 85 dd 3f 64 65 03 40 6c 81 4a 3f
       2.9180427 1.7306263 2.0530634 0.7910373
000010 82 24 bb 3f 43 07 f8 3f 79 5e e4 3f c6 80 df 3f
       1.4620516 1.9377216 1.7841331 1.7461174
000020 40 2e 9f 3f b2 ac cc 3f cb 62 3a 3f 06 6d b2 3f
       1.2435989 1.5990202 0.72806996 1.3939521
000030 7d e5 b0 3f 10 4c 5a 3f d5 78 85 3f fa a6 85 3f
       1.3820034 0.8527231 1.04275 1.0441582
000040 65 29 06 40 4d c5 ab 3f 7c 38 de 3f df 05 1a 3f
       2.0962765 1.3419586 1.7360988 0.6016521
000050 7e be 6d 3f 09 26 47 3f 0a b4 e2 3f 89 97 28 3f
       0.92868793 0.7779241 1.7711194 0.65856224
000060 9f 98 1a 3f 6c e2 c8 3f b3 49 c6 3f 53 c5 66 3f
       0.6038913 1.5694098 1.5491241 0.9014484
000070 0e 82 df 3f c2 1d dd 3f e6 d1 b1 3f 48 1e 39 3f
       1.7461565 1.7274706 1.3892181 0.7231183
000080 1b db c7 3f 57 dc a4 3f 4b 33 ba 3f 5d 6d 6f 3f
       1.5613741 1.2879742 1.4546903 0.9352625
000090 70 32 14 40 cf d3 da 3f ea 9d c0 3f e9 76 68 3f
       2.3155785 1.7095889 1.5048192 0.9080644
0000a0 d3 fc 30 3f 7f 3d 07 40 9e ef 64 3f 9a e2 dc 3f
       0.6913578 2.1131284 0.89428127 1.7256653
0000b0 9d 31 24 3f a4 72 7d 3f 99 64 06 40 ad ed 58 3f
       0.64138204 0.9900305 2.09989 0.84737664
0000c0 d8 01 53 3f 6c 27 c1 3f 0a 6d f8 3f 6d 3b 18 3f
       0.8242469 1.5090156 1.9408276 0.59465677
0000d0 32 49 b2 3f c0 60 aa 3f 63 73 fb 3f df ab d6 3f
       1.3928587 1.3310776 1.9644588 1.6771201
0000e0 cd 77 ab 3f 6d 60 01 40 f4 24 ca 3f 8f b3 c2 3f
       1.3395935 2.0215104 1.5792527 1.5211047
0000f0 3b 59 76 3f e2 50 09 40 3d 2c c1 3f ec d0 07 40
       0.96229905 2.1455617 1.5091625 2.1221266
000100 2d 81 47 3f d9 cc b4 3f 74 c0 13 40 1b 75 1e 40
       0.7793148 1.4125015 2.3086214 2.4758976
000110 b9 80 db 3f 47 6a 09 40 de c4 c3 3f c6 2d 28 40
       1.7148658 2.1471117 1.5294454 2.6277938
000120 6b 9b d2 3f b5 69 e8 3f de 6b bc 3f 79 df f1 3f
       1.645368 1.8157259 1.4720418 1.8896323
000130 d4 b0 cf 3f 98 82 27 40 6f 69 d6 3f e5 de e7 3f
       1.6225839 2.6173458 1.6750926 1.8114897
000140 9c 21 aa 3f 70 29 09 40 3f a0 c8 3f 13 d7 24 40
       1.3291507 2.1431541 1.5673903 2.575627
000150 9b 43 db 3f ff e5 1a 40 c2 b2 38 3f db 97 64 3f
       1.7130007 2.4202878 0.7214776 0.89294213
000160 9f 72 1a 40 84 f9 ca 3f f1 43 b9 3f cd 07 e9 3f
       2.413246 1.5857396 1.4473859 1.8205506
000170 c7 2c d8 3f 63 1c b9 3f 73 7f c8 3f ae 09 80 3f
       1.6888665 1.4461788 1.5663894 1.0002954
000180 11 37 01 40 da c5 09 40 2a 3f 48 3f d6 2b 8c 3f
       2.018986 2.152701 0.7822138 1.0950878
000190 d0 aa c4 3f b9 5c 1e 40 2c b0 d0 3f 4f d5 9d 3f
       1.5364628 2.4744093 1.6303763 1.2330722
0001a0 2d 71 e2 3f 53 34 96 3f 1d 4f d6 3f 09 06 01 40
       1.7690789 1.1734718 1.6742893 2.0159934
0001b0 4c 56 a7 3f a2 0b 88 3f 7d 5b 26 40 6e 3f d7 3f
       1.3073211 1.062855 2.599334 1.6816232
0001c0 89 b5 8a 3f 6a 90 cb 3f a8 51 06 40 fd 5c 04 40
       1.083665 1.5903447 2.098734 2.0681756
0001d0 db dc 1b 40 ce f9 25 3f 76 ee c8 3f 3f 82 8b 3f
       2.435355 0.64834297 1.5697773 1.0899123
0001e0 56 c5 cc 3f 16 42 08 40 e8 75 a4 3f 13 56 c8 3f
       1.5997722 2.1290336 1.2848482 1.5651268
0001f0 47 20 df 3f f7 2a a4 3f d2 9d da 3f 34 72 f4 3f
       1.7431725 1.2825612 1.7079413 1.9097352
000200 51 4c 2d 40 b9 84 01 40 e5 48 b1 3f 42 80 e3 3f
       2.707783 2.0237257 1.3850371 1.7773516
000210 2c 0d 05 40 74 23 8e 3f 95 b7 f1 3f 25 53 ef 3f
       2.078929 1.110457 1.888415 1.8697249
000220 97 e0 db 3f 2f ae a8 3f a9 e5 10 40 1d 04 ac 3f
       1.7177914 1.3178157 2.2640173 1.3438755
000230 0a 3b 5c 3f 4c 8f 88 3f 4f fa ab 3f 0a ef d5 3f
       0.86027586 1.0668731 1.3435763 1.6713574
000240 f2 24 32 40 08 00 f7 3f 9e 9e a5 3f 01 a6 03 40
       2.783505 1.9296885 1.2939031 2.057007
000250 7c 69 d7 3f 1e 8b 3a 3f 25 15 1d 40 dc 14 0c 40
       1.6829066 0.72868526 2.4544156 2.1887732
000260 13 5d a7 3f ac 97 a4 3f 4e 0c 9b 3f 58 54 43 3f
       1.3075279 1.2858787 1.211313 0.76300573
000270 5d a7 d6 3f cc 37 16 40 24 0f c3 3f 5f 33 f4 3f
       1.6769825 2.3471556 1.5238996 1.9078177
000280 80 6f e0 3f 20 93 b6 3f 31 b8 c9 3f 18 8d d2 3f
       1.7534027 1.4263649 1.5759336 1.6449308
000290 cb f5 4c 40 e3 e2 f8 3f 87 65 8e 3f 87 bc ee 3f
       3.202502 1.944424 1.1124734 1.8651284
0002a0 ed 25 f2 3f 00 74 25 40 ff 90 25 40 27 ec c9 3f
       1.8917824 2.585205 2.5869749 1.5775193
0002b0 0b 62 de 3f 97 ff 9b 3f dc ea 90 3f ca d4 40 3f
       1.737367 1.2187375 1.1321673 0.7532469
0002c0 92 8e a2 3f 12 11 18 40 fd a3 e8 3f 3a 84 fa 3f
       1.2699759 2.376042 1.8175045 1.9571602
0002d0 b6 92 9e 3f e3 29 fe 3f 45 8c bc 3f e5 b3 1d 40
       1.2388523 1.9856533 1.4730307 2.464105
0002e0 2a 50 0d 40 ee d5 b8 3f 9c 43 c3 3f e6 d2 c9 3f
       2.2080178 1.4440286 1.5255008 1.5767486
0002f0 ad 0e c7 3f 76 83 f1 3f 67 62 46 3f d5 34 d2 3f
       1.5551354 1.8868244 0.774939 1.6422373
000300 25 af d5 3f 61 f3 d7 3f f5 be fa 3f 76 19 9b 3f
       1.6694075 1.6871148 1.9589525 1.2117145
000310 02 a1 f0 3f d4 2f 9e 3f 49 80 0c 40 23 60 e8 3f
       1.8799136 1.2358346 2.19533 1.8154339
000320 0e 9d e5 3f 5f 90 ae 3f 0d 5a c6 3f 49 2b 67 3f
       1.7938554 1.3637809 1.5496231 0.9030042
000330 10 b9 83 3f 85 dc da 3f 09 5c 1c 40 a0 4c e3 3f
       1.0290852 1.7098547 2.4431174 1.7757759
000340 7c 59 19 3f a3 4a bd 3f c8 85 9d 3f f3 b1 17 40
       0.5990217 1.4788402 1.2306452 2.3702362
000350 df 62 08 40 56 92 09 40 09 99 de 3f 95 5e d0 3f
       2.1310346 2.1495566 1.7390453 1.6278864
000360 d5 c6 1c 3f 75 69 95 3f 93 86 31 3f 23 ca 7f 3f
       0.61240894 1.1672808 0.6934597 0.9991781
000370 24 68 b8 3f af 52 d2 3f bc e7 38 3f f7 53 a9 3f
       1.4406781 1.6431483 0.722286 1.3228749
000380 6c 0a 03 40 ef cc 37 3f d1 08 c3 3f 04 c9 3b 3f
       2.047511 0.7179708 1.5237066 0.733536
000390 9f 96 10 40 11 8f 41 3f 9e 15 15 40 ab ae e3 3f
       2.2591932 0.75608927 2.3294444 1.778768
0003a0 dd ea 58 40 7b 94 ef 3f 0b ea e4 3f 48 64 cc 3f
       3.389335 1.8717188 1.7883924 1.5968103
0003b0 d8 ab 1f 3f a3 5f e5 3f 45 ad b1 3f 44 72 d9 3f
       0.6237159 1.7919811 1.3881003 1.6987996
0003c0 66 bb 3f 40 01 43 48 3f f3 f1 c4 3f 8d b0 f2 3f
       2.995813 0.7822724 1.5386337 1.8960129
0003d0 77 28 11 40 25 e0 c3 3f 58 37 dd 3f 0a ea 1e 3f
       2.2680948 1.5302778 1.7282515 0.62075865
0003e0 df a9 a6 3f 78 ee df 3f a2 80 d1 3f 85 f1 e4 3f
       1.302059 1.749465 1.6367381 1.7886206
0003f0 f8 c3 ee 3f 64 04 b3 3f c9 6f f1 3f cc fb 04 40
       1.8653555 1.3985715 1.8862239 2.0778685

model.1.bias f4 [256]
000000 a6 22 af bf 6d 47 85 bf 12 40 5d bf 0a 81 79 bf
       -1.3682449 -1.0412422 -0.8642589 -0.97462523
000010 8f f0 65 bf ff ad cd bf f5 dc a6 bf 44 4e 90 bf
       -0.8982019 -1.6068724 -1.3036181 -1.1273885
000020 dd f7 1a 3e 90 ef 2e bf cd 15 7a bf e6 cc bb be
       0.15133615 -0.68334293 -0.97689515 -0.36679763
000030 1d 97 a1 be c9 af 02 bf d8 af 44 be 79 a5 45 bf
       -0.31560603 -0.51049477 -0.19207704 -0.77205616
000040 c1 84 ba bf bb 59 de bd 48 53 83 bf 59 21 58 bd
       -1.4571763 -0.108569585 -1.025979 -0.052766178
000050 e2 54 02 bf f4 72 6a be b2 b7 88 bf 8f c7 33 bf
       -0.5091077 -0.22895414 -1.0681059 -0.7022638
000060 e7 09 11 be df 11 13 bf 68 75 3c bf 70 29 21 3e
       -0.14163934 -0.57449144 -0.7361665 0.15738463
000070 55 ad 47 bf fd 2d ac bf 29 ef a5 be c7 63 8b be
       -0.7799886 -1.3451535 -0.32409027 -0.27224562
000080 47 53 3f bf 63 79 8b bf 43 e7 86 bf 89 c0 83 bf
       -0.74736446 -1.0896419 -1.0539325 -1.0293132
000090 56 24 a0 bf de f0 1a bf 8e ba 82 bf 1c db 28 bf
       -1.2511089 -0.60523784 -1.0213182 -0.65959334
0000a0 f0 d2 65 be 41 14 8f be 8a 75 21 bf c2 d8 d7 bf
       -0.22443748 -0.2794514 -0.63069975 -1.6863024
0000b0 f4 1f 1f bd e5 f2 b6 bf fd 43 ae bf b1 e7 22 bf
       -0.038848832 -1.4292876 -1.3614498 -0.63634783
0000c0 de 85 18 bf f6 ef 35 bf eb 84 06 bf 5b 0e e0 3d
       -0.59579265 -0.71069276 -0.52546567 0.10940238
0000d0 5f ad 09 be 70 ac 49 bf 76 ac 50 bf bf 0f 96 bf
       -0.13445042 -0.78778744 -0.81513155 -1.1723555
0000e0 a2 f4 6c bf 31 a6 24 bf 77 14 cc be de c5 30 bf
       -0.9256078 -0.6431609 -0.39859363 -0.6905192
0000f0 96 30 18 bf 4e f3 64 bf b1 c1 4c bf e3 56 80 bf
       -0.59449136 -0.89433753 -0.7998305 -1.0026516
000100 98 ba 1b bf 93 20 98 bf 3d bf 58 bf 62 7b 41 bf
       -0.60831594 -1.1884941 -0.84666806 -0.7557889
000110 b3 ed 23 bf 52 79 6f bf 16 e4 e5 be 1f 1a a3 bf
       -0.64034575 -0.93544495 -0.44900578 -1.2742347
000120 4f d6 e4 be 3b 04 7e bf 48 5a 95 bf 26 eb ba bf
       -0.44694754 -0.99225205 -1.1668177 -1.4603012
000130 d2 6d 11 be a0 e3 14 c0 92 9a 4c bf 12 38 ae bf
       -0.1420205 -2.3263931 -0.79923356 -1.3610861
000140 f0 96 6f bf b9 75 8f bf bf e0 62 bf c0 38 9a bf
       -0.9358969 -1.1207801 -0.88624185 -1.2048569
000150 7a e6 96 bf ee 97 69 bf f0 6e 49 be e6 ed e4 be
       -1.1789086 -0.9124745 -0.19671226 -0.44712752
000160 72 e7 c5 bf 18 26 a0 bf 2a 05 b4 be 99 5e d8 be
       -1.5461257 -1.2511625 -0.3516019 -0.42259672
000170 91 6b 58 bf 61 34 16 bf 44 d7 a1 bf 76 02 1e bf
       -0.84539133 -0.58673674 -1.2643819 -0.61722505
000180 f8 6a cb bf 6b a0 5f bf 80 ce 1c be 6d 2d d2 3c
       -1.5892019 -0.87354153 -0.15313148 0.025656426
000190 ee 9c 6c bf ae cd be bf 31 4c b8 bf c5 41 91 bf
       -0.92426956 -1.4906518 -1.4398252 -1.1348196
0001a0 ba f9 81 bf 10 05 a0 3e a5 2e 14 bf e4 67 80 bf
       -1.0154335 0.31253862 -0.57883674 -1.0031705
0001b0 cc 17 75 3d ee 2a 24 be 8c 49 d0 bf a1 af 78 be
       0.059837148 -0.16032001 -1.6272445 -0.24285747
0001c0 4d 3a 44 bf ec bb 40 bf 3e 85 18 bf a0 62 db bf
       -0.7665146 -0.75286746 -0.5957831 -1.7139473
0001d0 62 f2 77 bf 8f 94 0a bf 85 33 82 bf d4 2d f9 bd
       -0.9685422 -0.5413293 -1.0171973 -0.12166944
0001e0 b2 5e 59 bf 53 e7 aa bf ba df 71 bf 6e f8 b9 bf
       -0.8491012 -1.3351845 -0.94482005 -1.452894
0001f0 c7 22 68 bf bd 25 31 bf fe db aa bf 3c 78 be bf
       -0.90678066 -0.6919821 -1.3348386 -1.4880443
000200 d4 c5 7a bf c0 20 36 bf be bc b8 be 39 72 09 bf
       -0.9795811 -0.7114372 -0.360815 -0.53689915
000210 5d 13 4d bf e6 40 7c 3c c4 9d 5a bf ec cb d7 bf
       -0.8010767 0.015396332 -0.8539698 -1.6859107
000220 2a d1 88 bf c0 ae 0c bf cb b8 dd be 07 7c 0e bf
       -1.0688832 -0.5495415 -0.43305048 -0.55658
000230 26 b8 80 3c 0b ec d4 be b8 30 50 be 68 0e 98 be
       0.015712809 -0.41586336 -0.20331085 -0.2969849
000240 66 01 9b bf ee 0e 07 bf 34 b5 2b bf bb f5 76 bf
       -1.2109802 -0.52757156 -0.6707337 -0.96468705
000250 6c d7 93 bf a7 ba 53 be 74 41 48 bf c7 bd 93 bf
       -1.1550117 -0.20676671 -0.78224874 -1.154229
000260 ac a7 55 bf c5 04 e5 be 35 74 94 bf 9f f7 87 be
       -0.8345897 -0.447302 -1.1597964 -0.26556107
000270 02 37 a8 bf 77 c6 a9 bf 36 3b 61 bf 5a 7e ce bf
       -1.3141787 -1.3263692 -0.87980974 -1.613231
000280 5f e9 18 be ed df 63 bf 31 f0 69 bf 85 06 a6 bf
       -0.14932774 -0.8901356 -0.9138213 -1.297074
000290 35 b8 af bf b0 20 a1 bf a4 cc d0 be c2 69 20 bf
       -1.372809 -1.25881 -0.40781128 -0.62661374
0002a0 34 67 05 bf ee 9d b1 bf 94 83 a9 bf c6 b6 68 bf
       -0.521106 -1.3876321 -1.324328 -0.9090389
0002b0 c3 cb 90 bf 6d ec 95 be 84 05 65 be 79 90 13 bf
       -1.1312183 -0.2928194 -0.22365385 -0.5764232
0002c0 c3 3d 08 bf 20 83 a3 bf 0d 56 a0 bf f3 03 b6 be
       -0.5321924 -1.2774391 -1.2526261 -0.35549888
0002d0 80 ee 5b be 6b e0 c0 be a4 28 01 bf ad 18 43 bf
       -0.214777 -0.37671217 -0.5045264 -0.7620953
0002e0 e7 c9 9c bf 9d 49 87 bf 43 f2 58 bf c2 05 5e bf
       -1.2249116 -1.056934 -0.8474466 -0.86727536
0002f0 45 b6 fa be 81 d9 68 bf 18 d5 e7 be da 74 41 bf
       -0.48967186 -0.90956885 -0.45279765 -0.75568926
000300 31 77 a3 bf 46 67 93 bf 0b 87 61 bf 77 36 61 bf
       -1.2770749 -1.1515892 -0.88096684 -0.8797373
000310 d6 55 6e bf b0 3d 0e bf 34 de 7f bf 31 c2 d5 bf
       -0.93099725 -0.5556288 -0.9994843 -1.6699888
000320 78 1b 16 bf af fc 85 bf 14 cf 68 bf 4c 5d 53 bf
       -0.58635664 -1.0467738 -0.90940976 -0.82564235
000330 74 d8 cb 3d 50 6c 78 bf 0c c9 b4 bf 93 12 82 bf
       0.099533945 -0.9704027 -1.4123855 -1.0161918
000340 ee b6 17 be a3 f6 74 bf d3 d4 d3 be 0f 36 17 bf
       -0.14815876 -0.9568884 -0.4137331 -0.5906686
000350 1a 50 93 bf 9e ad 85 bf f8 f1 d2 bf f4 ad 93 bf
       -1.150882 -1.0443609 -1.6480093 -1.1537461
000360 e9 6e 40 bf a4 9e b5 3e 9d 87 1f be 54 9f 97 be
       -0.75169235 0.35472596 -0.15579076 -0.29613745
000370 aa eb 19 bf 24 bb b1 be dd 42 35 bf 69 c6 90 bf
       -0.6012522 -0.3471309 -0.7080515 -1.131055
000380 37 d3 e9 be 75 ba 2a bf 32 c1 0f be a8 53 03 be
       -0.45668957 -0.6669076 -0.14038542 -0.12824881
000390 f5 6e 76 bf e9 23 a4 be 62 11 a8 bf e6 85 82 bf
       -0.96263057 -0.32058647 -1.3130305 -1.0197113
0003a0 4b f3 94 bf 78 f7 0c bf d5 57 bc bf 78 17 8d bf
       -1.1636747 -0.5506511 -1.4714304 -1.1022787
0003b0 dc c7 2b bd c4 9a 06 be 20 67 10 bf 91 16 9e bf
       -0.041938648 -0.13144976 -0.56407356 -1.2350637
0003c0 35 87 9c bf 50 ea 39 bf 8c c0 f9 be 3c c6 85 bf
       -1.2228762 -0.7262316 -0.48779714 -1.0451121
0003d0 08 c4 44 bf 09 8c 0a bf 1d 64 bb bf ed 9f 18 be
       -0.7686162 -0.54119927 -1.4639927 -0.14904757
0003e0 b3 32 32 bf 6e 08 a2 bf 69 cd 9e bf c1 8e 9a bf
       -0.6960861 -1.2658823 -1.2406436 -1.2074815
0003f0 bf 54 97 bf 94 56 22 be e5 b4 49 bf 40 65 98 bf
       -1.1822737 -0.1585334 -0.7879165 -1.1905899

model.1.running_mean f4 [256]
000000 a2 bf 07 3f 11 97 42 3e d8 61 dd be d4 6c 77 3e
       0.53026783 0.1900294 -0.4323871 0.24162608
000010 b1 17 93 3e f1 43 88 3e 3d ff 3e 3f 35 bd ab 3d
       0.28729013 0.26614335 0.7460821 0.08385698
000020 60 0b cb be 46 e5 2a 3e 83 71 cc be b6 d8 eb 3e
       -0.39657116 0.16689023 -0.39930353 0.46063775
000030 3f 8d 25 3e f4 36 19 bf ff 2b 82 bb f1 22 ef be
       0.16167162 -0.59849477 -0.00397253 -0.46706346
000040 59 db 46 bf 69 44 de 3d 4c d8 3e be 63 04 04 be
       -0.7767845 0.10852892 -0.18637198 -0.12892298
000050 43 82 7b be 44 dc 7d be a7 35 90 3e 53 68 91 3e
       -0.2456141 -0.24791056 0.28165933 0.28399906
000060 c4 72 6c bd 6f bc 01 3e d6 b7 f1 3e dc c3 24 bf
       -0.057726637 0.12669538 0.47210568 -0.6436136
000070 d3 ef b0 be 25 68 d7 bd d8 17 51 3e 7b 64 7c be
       -0.3455797 -0.10517911 0.20419252 -0.24647705
000080 b2 46 0b 3f 27 f3 00 bf ab da 39 bf be 07 14 3e
       0.5440475 -0.5037102 -0.72599286 0.14456078
000090 14 ee 66 be 64 10 de bc 0f 5d 59 be a8 60 19 bf
       -0.22551757 -0.027107425 -0.21226905 -0.5991311
0000a0 93 37 59 bf 6f fa 2b be 72 83 08 bf c3 c0 18 3f
       -0.84850425 -0.16794752 -0.5332557 0.5966913
0000b0 f9 17 45 3d 76 15 0b 3f 0f 2e a7 3e 92 19 40 3e
       0.048118565 0.5432962 0.32652327 0.18759754
0000c0 57 4c 20 bf db 03 0e 3e 17 51 c8 be 53 2a c0 3e
       -0.62616485 0.13868658 -0.39124367 0.3753229
0000d0 9c 52 9c 3d da 21 fd be 01 e2 91 3e 68 5e 20 3d
       0.07632944 -0.4943989 0.2849274 0.039152533
0000e0 0a 9d ae 3e 9d a7 ca 3c b2 38 d0 be 3a 9f 51 bf
       0.34104186 0.024738127 -0.40668255 -0.81883585
0000f0 ab f0 90 be 72 3c 83 be 12 94 31 bf 6e 62 c1 3e
       -0.28308615 -0.25632054 -0.6936656 0.37770408
000100 24 b4 29 be cc a6 16 be 24 ae c1 3e f9 3c d3 bc
       -0.16572624 -0.14712065 0.3782817 -0.02578591
000110 94 e4 9f 3e 81 4c eb 3d d6 52 0b bf 32 49 a3 3e
       0.3122908 0.11489201 -0.5442327 0.3189178
000120 3e eb ba 3d 08 87 52 3d 4a eb ce 3e 3a f0 3b be
       0.091269 0.051398307 0.40413886 -0.18353358
000130 5a 36 b2 be 8f 4a 42 be 99 94 11 3f 0e 4a 15 3f
       -0.34807092 -0.18973754 0.5686737 0.58316123
000140 f3 2a 88 bf 3f 7c ce 3e fd db 9d bc d2 a3 34 bd
       -1.0638107 0.40329167 -0.019269938 -0.044101544
000150 02 bc 24 3e 75 b3 2b bf 5b 95 a8 be a8 21 95 bf
       0.16087344 -0.67070705 -0.3292645 -1.1650896
000160 82 a1 9a be 01 7d 1d 3f 40 3c 5e bd 2d e7 a0 3d
       -0.30201346 0.61518866 -0.054256678 0.07856593
000170 89 46 85 3d a5 ca 01 3e 18 21 2d 3f d3 3c e4 bd
       0.06507594 0.12674959 0.6762862 -0.11144414
000180 09 fa 3f 3f c2 67 bd bc e1 b9 70 be 6e 96 b1 be
       0.749909 -0.023120765 -0.23508407 -0.3468508
000190 c7 6a b8 bd 0f 6e 09 bd 47 83 0d 3e a4 53 ae bf
       -0.09004741 -0.033552226 0.1381961 -1.3619275
0001a0 ae 77 a1 bd a7 0e b4 be e7 03 06 3e 61 2d 4b 3b
       -0.07884155 -0.3516743 0.13087426 0.003100239
0001b0 34 36 58 bd 98 3f a5 3e fa 10 8f bd 24 94 3a be
       -0.052786067 0.3227508 -0.0698566 -0.18220574
0001c0 f8 cd 93 3e 6d 14 c0 be 12 a4 48 3e 7f c6 ef be
       0.2886808 -0.37515584 0.19593838 -0.46831128
0001d0 5c 67 3d 3e 60 61 05 bd bd 4d 01 3e 3d 60 5e 3f
       0.1849646 -0.032563567 0.12627311 0.868656
0001e0 61 80 e9 be 54 0d 89 3e ff d8 95 3e f6 2f 73 bd
       -0.45605758 0.2676798 0.29267117 -0.05937191
0001f0 c3 e8 d5 3e 96 85 30 bf a8 00 8a be eb ec 16 be
       0.41779146 -0.68953836 -0.26953626 -0.14738815
000200 cb 4f 34 bf 0d ef a5 3e 5e b3 ac 3e e0 72 fb be
       -0.70434254 0.32408944 0.33730596 -0.4911108
000210 c2 c5 dc 3c 82 5b 1f be ba b9 4b bd 18 1f 1e be
       0.026949767 -0.15562251 -0.04973767 -0.15441549
000220 30 43 e5 be aa f3 b4 bd a9 76 ad be 8f 26 d1 be
       -0.44777822 -0.08835538 -0.33879593 -0.4084973
000230 21 c8 34 be 4d d6 05 3f ff 70 0f 3f ff d4 ed bd
       -0.17654468 0.5228012 0.56031793 -0.116128914
000240 3f 81 94 be e7 3f 5d bf 58 d7 a7 3e f6 e4 68 be
       -0.29004857 -0.8642563 0.32781482 -0.22743592
000250 39 9c 08 3f 09 fa 0c bf 2b 22 8e 3e 4a d9 43 3e
       0.53363377 -0.55069023 0.27760443 0.19125858
000260 72 a5 ce 3e a9 20 26 3e 94 0d 95 be 1e aa 0c bf
       0.403606 0.16223396 -0.29111922 -0.5494708
000270 ac ab 75 3f 12 26 ec 3d 43 8c c8 be 65 28 08 3f
       0.95965075 0.11530699 -0.3916951 0.5318664
000280 f8 39 ef bd 68 4f cb 3e a3 6b f4 be 81 5a 78 3e
       -0.116809785 0.3970902 -0.4773837 0.24253275
000290 23 af 22 3f d1 6b 27 bf f8 7f 91 bf 35 f8 17 bf
       0.6354849 -0.6539889 -1.1367178 -0.5936311
0002a0 55 eb 6f bd 08 f0 49 3d 34 17 55 be 01 e8 3d 3f
       -0.05857404 0.049301177 -0.20809633 0.74182135
0002b0 e2 c7 17 bd 01 aa 28 bf e4 6e 63 be 81 6e 58 be
       -0.037055857 -0.65884405 -0.2221027 -0.21135904
0002c0 00 da a6 be 04 a1 83 be 44 64 17 be 1a b2 0e bf
       -0.32588196 -0.25708783 -0.14784342 -0.5574051
0002d0 c2 db 56 bf 38 d6 81 bd e3 ff 74 be fc 43 b6 bc
       -0.83929074 -0.06339687 -0.23925738 -0.022249214
0002e0 e8 b7 b1 3e c1 62 c3 3e ee 2e 0f 3f 64 c2 0f be
       0.34710622 0.3816128 0.55930984 -0.14038998
0002f0 57 8f 23 be 8a 54 62 be bb d8 f6 3e bf 0d 22 3f
       -0.15972649 -0.22102562 0.48212227 0.63302225
000300 9b e8 39 bf ce 2e 09 bf 85 18 c0 be 2b 9a ec be
       -0.7262055 -0.53587043 -0.37518707 -0.4621137
000310 6d 88 37 3e a0 3e f9 be 37 92 fd be 9a 47 5a be
       0.17923136 -0.48680592 -0.49525616 -0.21316376
000320 55 64 a8 bd 8c 0a 96 3e bb d9 9f 3e 00 44 86 3e
       -0.08222262 0.29304922 0.31220803 0.26223755
000330 9a fc fb 3e 55 f3 15 be 9a 58 b6 be 13 a1 d4 be
       0.49216157 -0.14643605 -0.35614473 -0.4152914
000340 ff 97 32 3e 8e 86 c7 be 63 78 96 3c d7 c7 f8 bc
       0.17440794 -0.38969845 0.018367952 -0.030368729
000350 66 ee 22 3e 05 4b df 3e d2 2b 2f 3d 06 26 da be
       0.15911254 0.43611923 0.0427664 -0.42607135
000360 31 13 2a bf 69 5e 5e bd ca b4 15 bf 87 89 81 3e
       -0.66435534 -0.054289255 -0.5847899 0.25300238
000370 e2 aa 8e 3e e3 16 3b 3d 7a 7a d1 bd 96 c9 3a 3d
       0.27864748 0.045676123 -0.10228439 0.045602404
000380 05 49 3d be 85 11 58 be 7d dc 22 be 45 2b 25 bf
       -0.18484886 -0.21100433 -0.15904422 -0.6451915
000390 7d 40 aa 3e 20 a8 dd be f5 ac 63 bd 96 de 34 be
       0.33252326 -0.43292332 -0.055584867 -0.17663035
0003a0 43 33 cf be 33 eb 80 be 3f b2 83 be ef ec 4a bd
       -0.40468797 -0.25179443 -0.25721928 -0.049542364
0003b0 a5 04 3d 3a 1c a7 d1 3e bd 51 0c bf 59 af 32 bd
       0.000721047 0.40947807 -0.5481222 -0.043624256
0003c0 59 2c 8f 3e 63 83 a4 bd 28 a2 b0 3e 16 90 cd 3e
       0.27963522 -0.080328725 0.34498715 0.4014899
0003d0 82 42 3d be 2a 86 07 be ec 53 e3 3e 28 36 99 be
       -0.18482402 -0.13234773 0.44399965 -0.2992413
0003e0 cc e5 50 bd 60 d8 90 3e 58 22 84 bf c8 f4 fa 3e
       -0.0510004 0.2829008 -1.0322981 0.49014878
0003f0 78 a9 aa 3d 2a 51 e9 3d 9b 17 6c 3d 89 a2 83 3e
       0.08333105 0.11392434 0.0576397 0.25709942

model.1.running_var f4 [256]
000000 ab 07 66 41 39 73 ae 40 ae 36 b1 40 5e 35 54 41
       14.376872 5.4515653 5.537925 13.263029
000010 6e f1 a7 40 da 23 89 40 5b 31 ac 40 2b 14 c4 40
       5.2482214 4.2856264 5.381025 6.127462
000020 9e 3f 41 41 42 66 ab 40 37 8e 86 41 db 75 86 40
       12.078032 5.3562326 16.81944 4.2018867
000030 5a a2 87 40 a2 1f b0 41 e2 cc 1c 40 b8 83 9b 41
       4.2385683 22.015446 2.450005 19.439316
000040 54 d0 54 40 a9 4c 3a 40 f3 3e 93 40 05 41 54 41
       3.3252153 2.910929 4.601434 13.265874
000050 8c 0a 9d 41 61 91 95 41 93 0d ca 40 e8 fc 88 41
       19.63015 18.695986 6.314157 17.12349
000060 15 fa 91 41 0b ff a4 40 e6 75 40 40 f6 59 9e 40
       18.24711 5.156133 3.007196 4.9484816
000070 d7 20 44 40 7f 93 a8 40 e8 e5 d5 40 c8 0f 93 41
       3.0645044 5.268005 6.6843147 18.382706
000080 18 19 25 40 85 21 4f 41 bf 4b fe 41 9b 6f de 41
       2.5796566 12.9456835 31.786985 27.804495
000090 83 f1 b1 40 4f 01 1a 40 45 32 74 40 15 3b a3 41
       5.5607314 2.4063299 3.8155682 20.403849
0000a0 28 e5 39 41 5f 4f 9d 40 fd bf 88 41 28 ca 49 40
       11.618446 4.915939 17.093744 3.1529636
0000b0 19 28 18 41 8e 8f a5 41 1f bb 86 40 ad e8 85 41
       9.509789 20.695095 4.210342 16.738611
0000c0 cb 1b 96 41 2f e8 c0 40 6a fc 09 41 5d 77 89 41
       18.76357 6.0283427 8.624125 17.183283
0000d0 51 e8 71 40 9e b1 32 41 bb 05 a8 40 7b 46 36 40
       3.7798045 11.168364 5.2506995 2.8480518
0000e0 b9 eb c7 40 53 03 1c 41 56 e7 45 40 44 ae c7 40
       6.2475247 9.750812 3.0922446 6.2400227
0000f0 7f ad 45 41 2e 7a da 40 a7 6f b8 40 2f 0d 91 40
       12.354857 6.8274145 5.7636294 4.5328593
000100 13 63 97 41 52 d1 12 41 48 ee 0b 41 a9 f9 5a 41
       18.923376 9.176104 8.745674 13.685952
000110 39 8a ca 40 01 a9 e5 40 29 18 b0 40 75 7f af 40
       6.329373 7.1768804 5.502949 5.4843087
000120 bf 59 3a 41 94 4d 5f 40 35 e2 6f 40 77 4a 93 40
       11.646911 3.48911 3.7481816 4.60284
000130 3c 67 f7 40 28 46 1a 41 b2 96 41 40 f6 b7 77 40
       7.731352 9.642128 3.0248227 3.870603
000140 ff 5e 86 41 b8 50 67 41 74 4c 87 40 ff 86 0c 41
       16.796385 14.457207 4.2280827 8.782958
000150 53 c1 d2 40 09 d6 59 40 90 8f 8f 41 da af 7e 41
       6.586099 3.4036887 17.945099 15.9179325
000160 29 76 03 41 93 6d ac 40 4d 8f a4 40 29 1f 88 40
       8.216348 5.3883758 5.142493 4.2538037
000170 bb 12 46 40 30 17 93 40 a1 a8 32 41 d9 ed aa 41
       3.0948932 4.5965805 11.166169 21.366137
000180 e5 b0 bb 40 06 7f ef 40 96 5b 80 41 57 1b d3 40
       5.8653436 7.484256 16.04472 6.5970874
000190 90 05 64 41 28 5b bf 40 c1 c3 72 40 19 22 62 41
       14.251358 5.9798775 3.7931979 14.133325
0001a0 a1 34 97 40 1f 53 80 40 84 e3 ac 40 17 93 c2 40
       4.7251744 4.0101466 5.402773 6.0804553
0001b0 01 c5 05 40 87 3b 75 40 c6 84 cc 40 72 67 79 41
       2.0901492 3.8317583 6.3912077 15.587755
0001c0 91 3d cc 40 1a c7 a7 40 94 ff 14 41 13 71 5e 40
       6.3825154 5.2430544 9.312397 3.4756515
0001d0 97 52 0f 41 30 aa 8f 41 83 8c 94 40 d9 f8 8b 40
       8.957664 17.9581 4.6421523 4.374127
0001e0 4e fe 17 41 ff 70 86 40 33 c8 91 41 55 2a 83 40
       9.499586 4.2012935 18.222754 4.0989175
0001f0 51 2e 9f 40 a0 24 b7 40 3e 5c 21 41 2a 41 60 40
       4.974404 5.723221 10.08502 3.5039773
000200 10 d9 13 41 d0 c5 93 40 12 b9 88 40 9a 14 c4 40
       9.240494 4.617897 4.2725916 6.127515
000210 49 16 bb 40 18 69 13 40 52 6e c7 40 c4 47 8f 40
       5.8464704 2.3032894 6.232217 4.4775105
000220 ad d7 74 40 34 01 f1 40 84 e9 cd 40 2c df a0 40
       3.8256638 7.531397 6.4347553 5.0272427
000230 90 08 4c 41 1d 17 41 40 65 05 72 40 87 6f 21 41
       12.75209 3.0170357 3.7815793 10.089728
000240 97 6a 20 41 c0 f5 5b 41 fb ae a7 40 d7 ae e2 40
       10.026023 13.747498 5.24011 7.0838428
000250 1c 84 b2 40 19 47 a2 41 b2 ef 99 40 8b 33 f5 40
       5.5786266 20.284716 4.8105097 7.662542
000260 7f c5 e5 40 08 7d 7c 40 b2 04 13 41 01 3d 8d 41
       7.1803584 3.9451313 9.188646 17.654787
000270 3a 56 b6 40 24 87 ce 40 ec 78 f9 41 94 4d 8e 40
       5.6980257 6.4539967 31.184044 4.44697
000280 4e 25 a1 40 28 7d d6 40 58 05 04 41 74 fc 66 40
       5.035804 6.702778 8.251305 3.6091585
000290 74 98 26 41 b8 5d b8 40 d9 21 f3 40 a0 d2 d0 40
       10.41222 5.7614403 7.597882 6.525711
0002a0 ed 77 ec 40 88 ee c1 40 f5 10 b2 40 7a 0a 00 41
       7.3896394 6.0603676 5.56457 8.002558
0002b0 bd 32 a0 40 29 fc bb 40 b4 3e a1 41 34 16 e0 40
       5.0061936 5.8745313 20.155617 7.0027103
0002c0 f5 f7 86 40 5c 5f a2 40 6a 6b 8b 40 e1 66 da 40
       4.217768 5.0741405 4.356862 6.8250585
0002d0 e6 e6 b5 40 f2 71 0f 41 72 2f 93 40 24 74 fa 40
       5.684436 8.965319 4.5995417 7.8266773
0002e0 ee 0d 6c 40 ad bb 8c 40 4c 09 7b 40 6f 51 7b 40
       3.6883502 4.3979096 3.9224424 3.9268453
0002f0 46 55 fb 40 40 8c 9a 40 38 cf a9 41 ef ce 8a 40
       7.8541594 4.8296204 21.226181 4.3377604
000300 f4 f9 92 41 74 f7 59 40 17 d2 93 40 4c aa 3c 41
       18.372047 3.4057283 4.6193957 11.791576
000310 b9 3b d5 40 74 78 44 41 16 cd 1e 41 30 00 59 40
       6.6635404 12.2794075 9.92507 3.3906364
000320 6c db 85 40 5e a7 7c 40 cd 76 b4 40 6d 9a cc 41
       4.183035 3.9477153 5.639502 25.575403
000330 06 d4 0b 40 dd 65 8b 40 69 5c b1 40 d1 43 85 40
       2.184816 4.3561845 5.5425305 4.1645284
000340 7f 4e 38 41 33 ed 82 40 8e d7 da 40 3f 5f e0 40
       11.519164 4.091455 6.838813 7.0116267
000350 49 5f 5b 40 75 7a a9 40 ac 59 3d 40 ea 10 a2 41
       3.4276907 5.2961984 2.9585981 20.258259
000360 70 f5 98 41 4f 36 06 40 4c 75 cd 41 32 f6 b7 40
       19.119843 2.0970647 25.682274 5.748803
000370 38 39 50 40 11 34 69 40 69 95 8c 41 c4 dd 39 41
       3.2534924 3.643803 17.572954 11.616642
000380 32 df 71 41 21 b5 c6 41 29 3c 96 40 41 6a 10 41
       15.116991 24.838442 4.694844 9.025941
000390 fb 79 f0 40 dd 97 4b 41 b0 3d 14 41 36 4b 5b 40
       7.51489 12.724576 9.26506 3.4264655
0003a0 ca fd 37 41 e1 07 e3 40 f8 da c3 40 38 b3 77 40
       11.49946 7.094712 6.1204796 3.8703136
0003b0 a5 81 3b 41 ce 04 82 41 31 9f 00 40 a1 97 46 40
       11.7191515 16.252346 2.0097163 3.1030047
0003c0 8b 26 70 41 f3 fd 9d 41 aa 1e 24 40 89 d6 55 40
       15.00941 19.748999 2.5643716 3.3412192
0003d0 61 0d cc 40 2b b8 34 40 91 28 30 41 70 c0 7f 41
       6.376633 2.8237407 11.009904 15.984482
0003e0 75 63 63 40 40 5a 8f 40 db 4f 2e 41 88 cf 98 41
       3.5529454 4.479767 10.894496 19.101334
0003f0 25 e8 97 40 fc 22 ad 40 27 42 8b 40 6e 8e 73 40
       4.747088 5.4105206 4.351825 3.8055682

model.4.weight f4 [128, 256]
000000 d4 54 b6 bf 2a a9 28 be 43 48 89 3e c2 f9 13 3f
       -1.4244637 -0.16470781 0.26812944 0.57802975
000010 cf 62 95 3e cc e5 93 3e 7e ea 43 3e 97 dd 04 3e
       0.29176947 0.2888626 0.1913242 0.12975155
000020 21 2f c2 be 5b 48 8e 3c e1 74 bb 3e 13 51 c6 be
       -0.37926582 0.017368486 0.3661261 -0.3873373
000030 b4 1b 0d 3e 3c a9 73 3e 47 6a 97 3d bd 77 f4 3d
       0.13780099 0.23795027 0.07393318 0.11936901
000040 4e 7e 8d 3e 4c a9 ab 3e 9b b3 a6 bd 71 69 b4 3e
       0.27635425 0.335276 -0.08139726 0.35236695
000050 50 3c 81 3e a2 0b a3 3d c8 32 da be 41 e3 00 3f
       0.25241327 0.07961203 -0.42616868 0.5034676
000060 5b e0 a2 3e 11 f3 75 3e 5d c2 1c be 3e 84 16 3d
       0.31811795 0.24018504 -0.15308519 0.03674721
000070 ea 60 4d 3e 5d e1 0f be 5f 6a db 3c 47 79 a7 3e
       0.20056501 -0.14050813 0.02678412 0.32709715
000080 54 27 03 3d 4d 80 a5 3e 3d 25 5b 3d 03 3e 5e 3e
       0.032019928 0.32324448 0.05350231 0.21703343
000090 02 cd 45 bf 47 0f 12 be 35 d8 c3 3e 4a 08 1e 3e
       -0.7726594 -0.1426364 0.3825089 0.1543285
0000a0 62 66 61 3e 08 19 aa 3e 3f f2 9c 3d a4 32 91 3e
       0.22011712 0.33222222 0.07663392 0.28358948
0000b0 91 25 54 3e 39 7b d3 3e 99 71 ef 3e fd 3d 84 3e
       0.20717455 0.4130495 0.46766356 0.25828543
0000c0 65 76 8e 3e 79 6d 4c be 24 d3 04 bf 4b 3c 9f 3e
       0.27824703 -0.19963636 -0.51884675 0.31100687
0000d0 b5 3d c0 3d 62 22 9a 3e 73 6b 7a 3e b9 9e 02 3e
       0.0938677 0.30104357 0.24455051 0.1275586
0000e0 25 89 7a be 6b 44 47 bf 5a 3e 6b 3e 80 d7 5d 3e
       -0.24466379 -0.7783877 0.22973004 0.21664238
0000f0 2d ab 77 3e 29 a9 44 bf a6 b2 8e 3e 96 7a 06 be
       0.24186392 -0.7682062 0.27870673 -0.131327
000100 7f 2d 50 3e 71 54 ca 3d 03 f6 ad be 14 ee 19 3e
       0.20329855 0.09879387 -0.33976755 0.15032226
000110 7b ed 88 be 80 bd 3d 3e 66 35 df 3e 1b ea ad 3e
       -0.26743683 0.1852932 0.43595427 0.3396767
000120 c9 67 10 3d 52 64 6a 3e 92 04 24 3e 05 68 18 be
       0.035255227 0.22889832 0.16017368 -0.1488343
000130 c5 0c 70 3e 73 75 f3 3c 0f 81 79 be 26 3b ae bd
       0.23442371 0.02971909 -0.24365638 -0.085073754
000140 06 7c 22 3d 60 1c e6 be 1b 2d 26 3e ce b6 43 bf
       0.03966906 -0.44943523 0.16228144 -0.7645081
000150 30 84 77 3e 59 b3 0a 3e 28 ef 0a 3e a7 60 35 3e
       0.2417152 0.13544978 0.13567793 0.17712651
000160 e5 ac 27 bf 72 55 50 be da e0 62 be fa 9f 95 3e
       -0.6549819 -0.20345095 -0.22156087 0.29223615
000170 25 de 2b 3e ec d2 37 3e f6 38 01 3b 42 89 77 3e
       0.1678396 0.17951554 0.001971779 0.24173453
000180 dd c0 d4 3d fd 5d 77 3e 44 f0 47 3e 48 10 e3 3c
       0.10388348 0.24156947 0.19525248 0.027717724
000190 2e 99 27 3e a2 4c d0 be 96 05 29 3b 14 a3 28 3e
       0.16367027 -0.40683466 0.0025790683 0.1646846
0001a0 22 88 12 3d da 9d 4e 3e 18 4b 35 be 06 d0 c9 bd
       0.035774358 0.20177403 -0.17704427 -0.098541304
0001b0 23 21 ae 3d 2c 5f 06 3e 20 02 65 be 57 99 32 bf
       0.08502414 0.13122243 -0.22364092 -0.6976523
0001c0 93 3d 9c 3e f9 3b f4 be a5 d8 cf be 31 72 66 3e
       0.30515727 -0.47702006 -0.40594974 0.22504498
0001d0 7b de 95 bf 5e 38 9b 3e 8a eb 57 3e e8 b1 30 be
       -1.1708521 0.30316442 0.21085945 -0.17255366
0001e0 b2 67 4e 3c aa 05 4d bd f6 a3 c8 3d c7 a6 41 3e
       0.012597965 -0.05005423 0.09796898 0.18911277
0001f0 93 d5 7d be 03 a4 0e 3e 7b 62 8c be b7 cd 8b 3c
       -0.24788503 0.13929753 -0.27418885 0.017065866
000200 95 23 fa be 4b c3 e8 3d b2 31 bc 3d 5d f8 1d be
       -0.48855272 0.11365374 0.09189166 -0.15426774
000210 20 dd ba be 55 1e ef 3e 19 8e 2b be 80 be cf 3e
       -0.3649683 0.4670283 -0.16753425 0.40575027
000220 97 de 2e 3e 2b 12 bb bd 01 9c 85 bd 07 b4 c0 bd
       0.17077099 -0.09134325 -0.06523896 -0.094093375
000230 8f d9 15 3e bb fb 82 3b a4 ce 14 be 53 61 2a bd
       0.14633773 0.0039972938 -0.14531952 -0.04159672
000240 a5 eb 4f ba 0b b8 f7 3d 69 73 3f 3e c0 be 87 be
       -0.0007931537 0.1209565 0.18696369 -0.26512718
000250 ed 97 40 3d a9 93 fa 3d 40 30 33 be 5a 01 49 bf
       0.047019888 0.12235195 -0.17498875 -0.7851769
000260 ca fa 9d bc 1c 42 e1 3d b4 f6 17 3d 70 a2 6a 3e
       -0.019284625 0.109989375 0.03710051 0.22913527
000270 72 2b e0 bd a0 dc 24 be 87 ec e9 be 78 fb ff bc
       -0.109457865 -0.16099787 -0.4568827 -0.03124784
000280 37 b9 98 3e 91 15 80 be 61 3a f1 bd d8 4e b1 bd
       0.29828808 -0.25016454 -0.11778713 -0.086576164
000290 d5 f6 7d bf 96 f3 59 3d ce e4 0d 3e dd 31 03 ba
       -0.9920476 0.053210817 0.13856813 -0.00050046836
0002a0 dd d9 15 bf 18 e9 67 bf 13 02 d8 be 78 ff f8 3d
       -0.5853556 -0.9059005 -0.42189083 0.12158102
0002b0 3b e6 0a 3e 00 1c d2 bd cd 9c e2 be c8 c0 ed 3e
       0.13564388 -0.10259247 -0.44260255 0.46436143
0002c0 56 b3 03 3e e3 2f 34 be 8c 10 27 bd 59 1f bf be
       0.1286138 -0.17596392 -0.040787265 -0.37328604
0002d0 31 99 e4 3d d3 48 1c bf dc 22 2d 3e 45 db ae be
       0.111620314 -0.6104862 0.16907829 -0.34151664
0002e0 5f 51 71 bd c1 d1 48 3e f6 45 0b 3e 68 65 54 3e
       -0.058915492 0.19611265 0.13600907 0.20741808
0002f0 7d 10 4e be 75 e7 b5 3c 55 b5 c7 3d 0f a6 06 bb
       -0.20123477 0.022205094 0.09751383 -0.0020545756
000300 a2 af 78 be 5c 97 27 3e af f7 98 3e 5c b9 e3 3d
       -0.24285749 0.16366333 0.29876468 0.11119339
000310 bd d2 3c be 8c 1c f5 be ec fd 2e bf f9 5f 40 3e
       -0.18439765 -0.47873342 -0.68356204 0.1878661
000320 41 94 e1 bd 7c d0 c0 3d b0 68 6c 3e 5a 9d 55 3e
       -0.11014605 0.09414765 0.2308681 0.20860806
000330 5c 5e 91 3d 6a c3 ea 3b f2 32 25 bf 6c b0 8d 3e
       0.07098076 0.0071644085 -0.6453086 0.27673662
000340 37 85 39 3e 66 d6 ba 3e 87 66 19 be 42 47 58 bf
       0.18117224 0.36491698 -0.14980517 -0.8448373
000350 db 13 3a 3e 3d d5 07 be 7b ac 2b 3f 46 80 7a be
       0.18171637 -0.13264938 0.6706006 -0.24462995
000360 51 b7 ba 3e 31 0e ad 3d a3 0c 2c 3e 5b 47 ce 3c
       0.36467984 0.084499724 0.16801696 0.02518051
000370 32 92 a1 3e 1d 8c 89 3d 8d 24 c5 3e d8 1e 39 3e
       0.3155685 0.067161776 0.3850445 0.18078172
000380 3d 83 a5 bd d1 15 98 3e 27 50 43 3e 77 6c d7 bb
       -0.08081672 0.29704145 0.19073544 -0.0065742093
000390 64 69 5c be d2 ab d3 3e 3a bf 46 bf 9f c2 f7 3d
       -0.21524578 0.41342026 -0.7763554 0.12097668
0003a0 d2 cc a0 bf 9d e4 11 bf 35 71 ba be cc 37 9d 3e
       -1.2562506 -0.5698946 -0.36414495 0.30706632
0003b0 34 60 95 3e e9 ec 07 bf 61 18 92 3e e5 a0 e7 bd
       0.2917496 -0.5309587 0.28534225 -0.11309985
0003c0 0c fb b4 bf a8 77 8a 3e 8b 25 db 3e d2 1a 31 be
       -1.4139113 0.27044415 0.4280208 -0.17295387
0003d0 65 30 00 be df 78 b5 3e 14 91 aa bd e9 6f 8a 3e
       -0.12518461 0.3544378 -0.08328453 0.27038506
0003e0 f3 8e 02 3f 7c 6b 90 3e 23 f1 fd be 60 75 62 bd
       0.50999373 0.28207004 -0.49598035 -0.05528772
0003f0 df 41 c9 be 22 81 c1 3d b2 c1 44 3e 24 06 de 3e
       -0.39308068 0.09448458 0.19214514 0.4336406
