models_nn/best_big.pt (torch, 791569 bytes, 37 tensors)

emb_layers.0.weight f4 [4, 2]
000000 dc b6 41 3f bd ba 09 3f 24 52 13 bd 4c ec a9 bb
       0.75669646 0.53800565 -0.035967007 -0.0051856395
000010 f6 13 b8 bf e4 00 00 bf 2c 53 0d 40 c6 53 23 bf
       -1.4381092 -0.5000136 2.2082014 -0.63799703

emb_layers.1.weight f4 [4, 2]
000000 22 fb c0 3e 22 5e 9c 3e b1 70 ec 3e 0b 41 66 3f
       0.376916 0.30540568 0.46179727 0.89943
000010 c8 5a a8 3f d8 c7 ec bf 7a 2c 7d bf a4 3d 75 3f
       1.3152704 -1.8498487 -0.9889599 0.9579718

emb_layers.2.weight f4 [7, 4]
000000 28 8c 89 bf a2 b2 1c bf 66 49 6b be 52 2a 9d 3f
       -1.0745897 -0.6121007 -0.22977218 1.227854
000010 41 86 bc 3e 2d 61 cb be 54 b9 d4 3e d1 93 06 bf
       0.36821178 -0.39722577 0.41547644 -0.525693
000020 ad 81 aa bf dc 63 45 3f 07 9f 31 bf 51 dd d4 be
       -1.3320824 0.771055 -0.6938328 -0.415751
000030 c6 bc 4d 3e f0 73 07 3e 45 48 99 3f b6 5e 97 be
       0.20091543 0.1322782 1.197518 -0.29564446
000040 23 7f 8f 3f 24 57 29 3f 0b f4 03 40 11 b6 03 3f
       1.1210674 0.6614859 2.0617702 0.51449686
000050 ee 79 8d 3f d9 dd 37 3f 84 a4 b4 be aa 26 66 bf
       1.1052835 0.7182289 -0.35281765 -0.89902747
000060 9c 52 30 be 00 17 06 3f 48 ec 67 3d 7d 43 da 3e
       -0.17219013 0.52378845 0.05662182 0.42629614

emb_layers.3.weight f4 [4, 2]
000000 da 7f c2 be 95 67 5f 3f fb 1c ca 3e 8c 0a a7 bd
       -0.37988168 0.8726743 0.39475235 -0.081563085
000010 09 bf 27 bf db 97 bc 3e 42 bf f5 3f ff cb 66 be
       -0.6552587 0.36834607 1.9198992 -0.22538756

emb_layers.4.weight f4 [5, 3]
000000 99 11 8a be 7c 2f 29 3e 1b 25 43 bf 79 36 3a bf
       -0.2696655 0.1652202 -0.76228493 -0.7273937
000010 f8 5c 2c 3d d2 28 90 bf c9 0f 4e 3f 98 87 16 3f
       0.04208085 -1.1262457 0.80492836 0.5880065
000020 bc 6a 47 c0 29 8f 0c be fc d1 c6 3d 6d d9 16 3f
       -3.1158895 -0.13726486 0.0970802 0.58925515
000030 bf 32 11 bf f3 15 12 bf 86 8c cc 3f
       -0.5671806 -0.5706474 1.5980384

emb_layers.5.weight f4 [8, 4]
000000 ba b5 3b 3f f7 68 9b 3e 74 ae 25 bf 5d ef f8 3d
       0.7332417 0.3035352 -0.6471932 0.1215503
000010 98 54 ca 3f f1 23 5f 3f ac 3b bb bf cf 57 8a bf
       1.5807066 0.8716422 -1.4627585 -1.0808047
000020 c4 87 c2 3e 0f 12 d1 be 5b 40 ca 3e d6 5f 7e 3e
       0.37994206 -0.4083409 0.39502224 0.24841246
000030 c8 61 75 3f b5 80 e1 3d 68 3b b8 bf 06 bb 66 3f
       0.9585233 0.11010877 -1.4393129 0.90129125
000040 a3 ab b1 3f f2 98 e3 3e 5a ef a0 bf ca bf bf 3d
       1.3880504 0.44452626 -1.2573044 0.09362753
000050 50 68 56 bf cd c4 43 3f 02 91 b8 3f 78 b7 9a 3f
       -0.8375292 0.7647217 1.4419253 1.208724
000060 ef a2 9b be e1 e5 8f 3e 25 3f ba bf e4 5d 89 3e
       -0.30397746 0.2810507 -1.455052 0.26829445
000070 95 8f b2 3e 40 b4 77 3f b7 6e ee be ff 69 cd 3f
       0.3487517 0.96759415 -0.46568844 1.6047972

net.0.weight f4 [512, 30]
000000 c4 73 8b 3d af 9d 05 3e 53 04 4b 3e 29 32 86 bd
       0.0680919 0.13048433 0.19825868 -0.06552536
000010 41 3d 1c 3e a0 f1 ab 3d ac e3 9b bd 53 c3 84 bd
       0.15257742 0.08395696 -0.07611784 -0.06482568
000020 66 6b 26 3e 88 f4 b7 3c 49 e8 dd bd cd fc e2 3b
       0.16251907 0.022455469 -0.108353205 0.006927109
000030 ce d3 e6 3c 0f cb a7 bd b1 87 a6 bd a9 05 0d be
       0.028177168 -0.08193027 -0.0813135 -0.1377169
000040 ba de 94 3e c4 31 bf bd 80 44 1f be 94 83 9e bd
       0.29076177 -0.09335664 -0.15553474 -0.0773994
000050 f0 dd 78 bd b8 a9 01 3d c9 6f 68 3e 52 0d 8a bd
       -0.06075853 0.031655997 0.22698893 -0.06740822
000060 12 86 ce 3d 14 6a 30 3d cd 20 e1 3d 78 f5 e4 bd
       0.10084166 0.043069914 0.109925844 -0.11179632
000070 25 18 9a 3d 4d fc 03 3e 64 5d 9b 3d a6 b8 ae be
       0.075241365 0.12889214 0.07586172 -0.3412525
000080 6e 52 24 be 29 01 14 bd a6 37 03 bd ed 0e a0 bd
       -0.1604707 -0.03613392 -0.032035492 -0.07815347
000090 f2 40 81 3d ba 0b d7 3d 57 7a 7c 3c dd 93 12 be
       0.063112155 0.105002835 0.0154100275 -0.14314218
0000a0 d7 63 e4 bc f5 30 17 bd 5a 26 32 bd 16 37 0c 3e
       -0.027879639 -0.036911923 -0.043493606 0.13692889
0000b0 c1 44 75 bd c0 c0 56 be 6f 36 55 3e 9f e2 4a 3d
       -0.059880022 -0.20971966 0.20821546 0.04953253
0000c0 4d 05 ba bd 46 c1 c5 bd 37 0e 34 3d 51 e0 2e bc
       -0.09083042 -0.096560046 0.04395887 -0.010673598
0000d0 01 c0 23 be 28 11 ae 3d a9 38 32 3e 0a a0 8b 3b
       -0.15991212 0.08499366 0.17404427 0.0042610215
0000e0 ce fd 36 be 39 44 c7 ba 07 9b a1 bd d8 61 4a 3d
       -0.17870256 -0.0015202827 -0.07890897 0.049409717
0000f0 6f a0 79 bc 4c be 1d bc b9 14 bc 3e 44 ad b5 bd
       -0.015236004 -0.00962789 0.3673456 -0.088709384
000100 d2 4b df bd 50 16 12 3e 24 5b ea bd 7d 28 0b bd
       -0.109031335 0.14266324 -0.11443165 -0.03397416
000110 54 01 fc bd e0 ce 0e 3e 16 b4 49 bd 50 6b af bc
       -0.12304941 0.13946104 -0.04924401 -0.021413475
000120 03 0c 67 be 5c ed fa bd f2 fe c3 bd 23 dd c4 3d
       -0.22563176 -0.12252304 -0.09570111 0.09612491
000130 0d ba 2f 3e 42 f0 d1 3d 01 bb 8b 3d 89 5f 1a 3d
       0.17160816 0.10250904 0.068227775 0.037688766
000140 ce 0f a6 bc 34 22 1e be d7 6a bf bd 00 d4 14 be
       -0.020271208 -0.15442735 -0.0934655 -0.14533997
000150 00 26 c6 3d 6b e5 14 be bb e4 66 bd dc 11 72 bd
       0.09675217 -0.14540641 -0.056370478 -0.059099063
000160 69 f0 8c bd 96 7c 05 bd f7 c3 8a bd e7 52 1b 3e
       -0.06881792 -0.032589518 -0.067756586 0.15168343
000170 ba ee 1f bd 7a 2b cf 3d 20 69 f4 bd 21 20 20 be
       -0.039046027 0.10115714 -0.119341135 -0.15637256
000180 85 2c 6b bd 5f 99 fd 3c 1e c7 97 bb 70 03 9c be
       -0.057415504 0.030956922 -0.004631891 -0.30471373
000190 4f c8 14 3e 92 7b 2c be 5c e3 14 3d a9 6b f6 3d
       0.14529537 -0.16844013 0.03634964 0.12032253
0001a0 e8 c1 47 3e f1 e4 88 be 4d 83 78 3e 22 7b bd bd
       0.19507563 -0.26737168 0.24268837 -0.09252001
0001b0 66 80 c1 3c 23 60 29 3d 83 cc 15 be 08 77 1f 3c
       0.023620795 0.04135145 -0.14628796 0.009732969
0001c0 f4 6e 2c bd 8c 24 16 be 3c aa a4 3d 63 b5 2e be
       -0.042098 -0.14662379 0.08040282 -0.17061381
0001d0 68 0f c9 3d e0 74 72 3e 85 0d 2b 3e 25 2b 1d bc
       0.09817392 0.23677397 0.16704376 -0.009592806
0001e0 37 81 25 be f1 22 4d 3e cd a9 61 3e 81 ce e1 bd
       -0.16162573 0.2003286 0.2203743 -0.110257156
0001f0 61 10 5e bd e0 a1 12 be f8 c6 1c be 91 fe ed bd
       -0.05421484 -0.14319563 -0.15310276 -0.1162082
000200 9d fe 8d 3d ca 5d ae bd e1 3b 97 bd ee 31 48 3e
       0.06933329 -0.085139826 -0.07384468 0.19550297
000210 12 0f a5 3e f9 4d 3b be 8b d7 3c be 02 ce d2 bd
       0.3223806 -0.18291463 -0.18441598 -0.10293199
000220 13 2c fa bd 99 a3 35 bd 71 81 b1 3d 4a c8 2d bc
       -0.12215438 -0.044345472 0.08667267 -0.010606835
000230 51 4e 20 bd 74 f3 be 3d c7 e9 03 be 55 53 e5 bd
       -0.03913719 0.09323779 -0.12882148 -0.11197535
000240 0a 5e 3f bd 25 b4 8c bd 78 50 66 bd f8 fc 43 bd
       -0.046720542 -0.06870297 -0.056229085 -0.04784867
000250 00 06 6d bd 45 2a 9d 3d 3a 7c 96 bd 67 ba a9 bb
       -0.05786705 0.07674078 -0.07347913 -0.0051796916
000260 18 f6 14 be 0f 15 3f 3d f6 f0 fc 3d 41 a1 7a 3d
       -0.14547002 0.046650942 0.12350647 0.06118894
000270 49 88 3d be a0 7b 7e 3d 09 21 ea 3d 3b 02 14 bd
       -0.1850902 0.062129617 0.11432082 -0.03613494
000280 ca ec 0b 3e ce 11 42 3d a8 64 6a be 83 aa 4f 3e
       0.13664547 0.04738026 -0.2288996 0.20279889
000290 de dc 9a 3d 5d 55 24 be 08 85 5f 3e ac 1d a8 3d
       0.07561658 -0.16048189 0.21828091 0.082087845
0002a0 73 ac 93 bd ba 48 87 be 90 44 27 be 5a a8 d7 bd
       -0.072106265 -0.26422673 -0.16334748 -0.105301574
0002b0 1f 75 3a be 2d 6e 8c bc ec f4 15 3e 22 7f 9e bc
       -0.1820874 -0.01714238 0.14644212 -0.019347731
0002c0 02 c0 d6 bd 0d af ef bd 97 1c 85 3d 6b 4d 41 be
       -0.10485841 -0.1170331 0.06499594 -0.18877189
0002d0 23 76 45 bd 7a ab c6 bd 6d 9c d5 bd 1e 36 ac bc
       -0.048208367 -0.09700675 -0.104302265 -0.021021899
0002e0 3a bc c7 bd ec 7d a1 3d 49 95 2d be 23 a3 31 be
       -0.09752698 0.07885346 -0.16951479 -0.17347388
0002f0 45 1e 3b bd b8 eb 2a be 06 b8 29 3e 80 97 a2 bd
       -0.045683164 -0.16691482 0.16574106 -0.079390526
000300 01 4e 53 be 94 5b 19 3e 77 1d 3a 3e 55 09 94 3e
       -0.20635225 0.1497634 0.18175302 0.2891337
000310 fd 5b b0 bc 17 60 e6 3c 45 23 99 be 78 0d 27 bd
       -0.021528238 0.028121991 -0.2990972 -0.04078433
000320 33 9f 18 3e a9 e0 12 bc 21 8a 49 be aa 68 51 3e
       0.1490448 -0.008964696 -0.19681598 0.20450082
000330 dd 79 69 bd 2c d9 88 bd df 33 fb bd 4b e7 a3 3b
       -0.057000984 -0.06682047 -0.12265753 0.0050019375
000340 80 0c 83 3d 79 05 ff 3b b9 a8 d1 bd 3c 02 f3 bc
       0.063988686 0.007782635 -0.102372594 -0.029664151
000350 ad aa 4d be 74 4c aa 3d 14 7d 28 3e 09 90 01 bd
       -0.20084639 0.083153635 0.16453964 -0.031631503
000360 50 36 ff bd 90 63 14 be de 28 b4 bd 59 0a 69 bd
       -0.12461531 -0.14491105 -0.08796857 -0.056894634
000370 bf 94 8d 3c dd 38 3b 3e e0 4c 7a 3e f6 12 d0 be
       0.017282842 0.1828341 0.24443388 -0.40639466
000380 86 b8 0d be 9d 3a 0e be 35 4d 29 3d ff a8 c3 3c
       -0.13839921 -0.13889547 0.041333396 0.023884295
000390 79 db ea bd b5 3f 8b bc b1 36 11 be f8 16 4f 3a
       -0.11467642 -0.016998151 -0.1418102 0.0007899846
0003a0 98 c5 5d 3d ab 2d 70 b9 b1 0f 08 ba b3 04 59 bd
       0.05414352 -0.00022905196 -0.00051903265 -0.052982997
0003b0 09 d1 a0 3b 30 b2 0f 3e 3a 90 28 3e 42 f3 0f bd
       0.0049077314 0.14032817 0.16461268 -0.035144098
0003c0 72 46 9b bd 30 61 e5 bd 01 b9 33 bd c0 23 19 be
       -0.07581796 -0.11200178 -0.043877605 -0.14955044
0003d0 a0 b7 f7 bd 08 02 2a bd bd 32 53 3d 29 aa 95 bb
       -0.120955706 -0.041505843 0.05156206 -0.004567404
0003e0 c2 c6 60 bc 42 a3 57 be 8e 67 19 be b5 0a 00 be
       -0.013719263 -0.21058372 -0.14980909 -0.12504084
0003f0 0c 07 84 be 46 9f 43 3e 27 d5 e1 3d d3 0e 0f be
       -0.25786626 0.19103727 0.11026984 -0.13970499

net.0.bias f4 [512]
000000 83 68 83 bd 17 47 d1 bd d7 f4 9a bd 8a fd a2 3d
       -0.064164184 -0.102186374 -0.07566231 0.07958515
000010 a2 72 07 be b5 94 9e 3d ac f2 a3 bc a2 a3 ca 3d
       -0.13227323 0.07743207 -0.020013176 0.09894492
000020 69 53 b8 bd d8 0e 83 3d d5 3a 48 3d ac 8a ed 3d
       -0.09000284 0.063993156 0.04888423 0.11598715
000030 c6 80 f4 3d a6 59 0e 3d e2 07 26 3e e8 36 0e be
       0.11938624 0.034753464 0.16213945 -0.13888133
000040 ae 2d 81 bd 82 a2 93 3d 51 be da 3d 08 ed fe bd
       -0.06307541 0.0720873 0.10680831 -0.12447554
000050 f2 7c 3f bd 91 19 12 3e 49 73 15 be b7 1b a4 3d
       -0.046750017 0.14267565 -0.14594759 0.08013099
000060 51 eb 34 3e 4c 56 9a bd a0 e0 e7 bc 0a bd 0c 3d
       0.17667891 -0.07535991 -0.028305352 0.03435997
000070 fa 3a 94 3d 85 30 c0 bc 95 ef 25 be 8e 7a 78 bc
       0.072378114 -0.023460636 -0.16204675 -0.015165938
000080 06 cc 09 3d 3a 9a f1 3d 41 7e 21 3d 89 75 10 3e
       0.033641838 0.117969945 0.039427046 0.14107336
000090 9b 21 9d bd 71 4f 41 bc 0c 81 6d 3d 1a be 11 3e
       -0.07672425 -0.011798725 0.057984397 0.14232674
0000a0 20 3e a4 3d 31 9e 21 3e cd b9 66 3d 82 de aa 3d
       0.08019662 0.15783001 0.056329537 0.08343221
0000b0 f7 e4 1f 3d 1c 66 1b 3e d3 51 22 3e af 2d eb 3d
       0.039036717 0.1517567 0.15851526 0.11483323
0000c0 9e 1c 25 be da 64 c9 bc 3d 02 85 bd 8e 0e a4 bc
       -0.16124198 -0.024584223 -0.064945675 -0.020026471
0000d0 62 3c fe 3d ec c6 fe bd ec 7f c7 bd 21 3d 7a bd
       0.12413861 -0.12440285 -0.09741196 -0.061093453
0000e0 91 df 01 3c 25 6a b3 bd 7f ea 0a 3d d2 85 2c be
       0.007926838 -0.0876048 0.03391504 -0.16847923
0000f0 3c a9 b9 bd 85 3c d3 3d e1 22 01 3e 62 50 61 bd
       -0.09065482 0.103142776 0.12610961 -0.0550083
000100 22 9f 23 3c 45 12 a0 bc 26 fe 0b be 20 7c 07 bd
       0.009986671 -0.019539962 -0.13671169 -0.03307736
000110 43 9d ee 3d 00 fb 5e 3c 26 55 2a 3e ac 86 20 be
       0.11651089 0.013609648 0.16634044 -0.15676373
000120 c7 68 0e be ca 86 19 be 2e 69 f1 bd eb bd 0e 3d
       -0.13907157 -0.14992824 -0.117876396 0.03484909
000130 c3 f9 04 3e 1e 35 0a be 26 6c 0c be b0 07 95 bd
       0.12985902 -0.13496825 -0.1371313 -0.07276857
000140 8d f0 e9 3d 5c b4 c0 3d e1 ce 89 bc 57 b3 29 3e
       0.114228345 0.09409401 -0.01682228 0.16572319
000150 c6 97 8a 3d b0 ca 39 3e dc 3d be bb a1 17 00 be
       0.0676723 0.18143725 -0.005805714 -0.12509014
000160 6d 53 47 3b ef 60 77 3d 64 fd 92 3d 65 8b 5e 3b
       0.0030414716 0.060395177 0.07177237 0.0033957597
000170 6b 5a ba 3c 9a d7 dd 3c d5 ac a1 bd 17 e1 50 3d
       0.022748193 0.027080346 -0.07894293 0.050995912
000180 16 e1 ec bd 43 4d b8 bc 00 48 b5 3d ef e1 42 3d
       -0.11566369 -0.022497779 0.088516235 0.04757875
000190 66 22 c3 3d 28 56 00 be 1f b0 31 bd c1 f1 c8 bd
       0.09528045 -0.12532866 -0.043380853 -0.09811736
0001a0 0a 45 0c be b8 5f 65 bd e4 52 ce bc 58 8d cc bb
       -0.13698211 -0.055999488 -0.02518601 -0.0062424354
0001b0 b5 6a 4d bc 19 88 f1 bd 27 fd be bc ce 6f 1f 3d
       -0.012537648 -0.11793537 -0.023314072 0.038924985
0001c0 8c 2b 0c 3e 5c fe de 3d 36 27 13 be b4 38 dc bd
       0.13688487 0.10888359 -0.14370427 -0.10753003
0001d0 e1 e5 07 3e dc 79 08 3e 0c 4b d6 3d 27 23 bf bd
       0.13271286 0.13327736 0.10463533 -0.09332877
0001e0 8d 0c 19 3e 61 6b 34 be 7a 01 17 be f2 99 05 3c
       0.14946194 -0.17619087 -0.14746657 0.008154379
0001f0 ac c8 aa 3d bc fb 33 be 80 c4 e0 3c 5e 39 24 bc
       0.083390564 -0.17576498 0.027437449 -0.010023443
000200 8b 5f 09 bc 79 2b 16 be 42 11 b7 bd 26 83 2b 3c
       -0.008384596 -0.14665021 -0.089388385 0.01046828
000210 f5 9b 60 3d cb 55 d5 3d aa 46 6c bd 0e 3a 23 3e
       0.054836232 0.10416754 -0.057684578 0.15940115
000220 bc 10 8a 3d ba 5a f5 bd b6 f9 40 be d2 26 03 3e
       0.06741473 -0.11980195 -0.18845257 0.12807778
000230 64 ce 3d 3c 62 47 26 bc 14 bc 90 bd aa f5 af 3d
       0.011584852 -0.010148855 -0.07067123 0.085917786
000240 81 a6 3a bd a1 e0 0b be ef c4 06 3e a7 18 81 bd
       -0.045568947 -0.13659908 0.13161062 -0.0630353
000250 10 5b bc 3d 2c c1 e9 bd db 4d 21 bd be 91 c8 bd
       0.09197056 -0.11413798 -0.03938089 -0.09793423
000260 5e 0b ec ba 36 7e dd bc 58 9a 3b 3d 75 f8 10 be
       -0.0018008759 -0.027037721 0.04580149 -0.14157279
000270 0f 8e 29 be 5f 3b 10 3e b0 12 08 be 07 c2 88 3d
       -0.16558097 0.14085148 -0.13288379 0.06677633
000280 90 7c 27 be e4 50 de 3c 47 c5 eb 3b 5a 31 bf bd
       -0.1635611 0.027138181 0.007195148 -0.09335585
000290 fc 6c a0 bc 6a bc 18 3d 36 5d 8d 3c 2f 77 0a 3e
       -0.019583218 0.03728906 0.01725636 0.13522027
0002a0 1c 27 c1 bd 4e ed 9c 3d a9 33 40 3e 1f e7 03 be
       -0.09431288 0.0766245 0.18769707 -0.12881134
0002b0 ca f5 0e be 22 c8 38 3d e0 d1 94 bd 59 0d 89 bc
       -0.13960949 0.045112737 -0.07266593 -0.016729997
0002c0 fe f1 28 be 10 15 d6 3d fb a7 20 bc 22 4a 0a 3c
       -0.16498563 0.10453236 -0.009805675 0.008440526
0002d0 9a ae 77 bd 06 4f 64 3d 45 b5 f3 bb 1a 4c 78 bd
       -0.060469247 0.055739425 -0.0074373805 -0.06061945
0002e0 a4 9d 13 3d 75 44 9c bd b7 7a 88 3d b7 87 2f be
       0.03603901 -0.07630245 0.06664031 -0.17141615
0002f0 d4 a0 7e bd b3 18 fd bd a6 db a7 3d d8 84 f2 bd
       -0.062165096 -0.123582266 0.081961915 -0.11841744
000300 57 e6 07 3e 44 62 4c 3d 00 5c de 3d f4 f5 f8 bd
       0.13271461 0.0498984 0.10857391 -0.12156287
000310 9c 26 14 be dc 74 e4 bc c5 eb cf bd 7c b1 86 bd
       -0.14467853 -0.027887754 -0.10152391 -0.06576821
000320 ca 5a 25 3e 58 d1 a8 3d a4 e4 64 bd b7 c4 e7 3d
       0.16147915 0.08243054 -0.05588211 0.11316817
000330 e9 43 ec bd 2f c8 c5 bd 49 d3 90 3d 0c 95 9c 3d
       -0.1153639 -0.096573226 0.070715494 0.07645616
000340 9c ed 87 bd dd 8c 0a be df 4d fe 3c 2f 3f 3a 3e
       -0.06637117 -0.13530298 0.031042991 0.18188165
000350 ef c5 41 3e 1f 19 19 3e ce 14 11 be 7f 3d f3 3d
       0.18923162 0.14950989 -0.14168093 0.11876964
000360 27 e7 b1 3c 8a ae 16 be ba f3 a2 3c 13 3e 38 be
       0.021716667 -0.14715019 0.019891609 -0.1799243
000370 86 de 31 3d d4 1f e7 bd 4c cd d7 bd cd 82 b3 3b
       0.043425106 -0.112853676 -0.10537204 0.005478239
000380 55 c3 ff 3d b5 2f de 3d 2c 71 d1 bd 59 aa af 3d
       0.124884285 0.10848943 -0.10226664 0.08577413
000390 35 f9 8f 3d 60 fd 01 be d6 28 48 bd 1c 0c 21 bd
       0.07029954 -0.12694311 -0.04886707 -0.03931819
0003a0 da 04 10 be 49 45 29 be e6 9c 05 be db 84 1a 3e
       -0.1406435 -0.16530336 -0.13048133 0.15089743
0003b0 d7 7b 3a bd 0b 88 49 3c e0 5c 1c be f2 0f da bc
       -0.04552826 0.012300502 -0.15269804 -0.026618931
0003c0 31 7e 8c 3d 13 c1 e3 3b 1b 2b 8b bc 3d d2 3a bb
       0.068600066 0.0069505065 -0.016988328 -0.002850666
0003d0 b3 45 08 3e 2b fb 03 be 7a 3f 21 be 59 ff 20 be
       0.13307838 -0.12888782 -0.1574687 -0.15722407
0003e0 9e ff 92 3d a2 7f dd bd d6 7f b0 bd c8 3c 06 bd
       0.07177661 -0.1081536 -0.08618133 -0.03277281
0003f0 1d 75 f0 3d eb 59 3f 3b c3 70 69 3d 6d 7c 7b bd
       0.117410876 0.0029197882 0.056992304 -0.06139796

net.1.weight f4 [512]
000000 67 fd 67 3f 93 e6 85 3f a7 ef 69 3f 34 41 83 3f
       0.90621036 1.0460991 0.91381305 1.0254273
000010 95 bd 93 3f 2c e9 72 3f b9 d3 68 3f 87 1e 83 3f
       1.1542231 0.9488704 0.90948063 1.0243691
000020 51 59 6b 3f 60 f6 61 3f 41 98 5c 3f 86 d4 81 3f
       0.9193316 0.88266563 0.8616982 1.0142982
000030 df 34 76 3f 41 a7 89 3f 18 84 90 3f 86 11 76 3f
       0.96174425 1.0754167 1.1290312 0.9612049
000040 ea ea 89 3f 71 19 86 3f 0e 3e 64 3f a7 f9 89 3f
       1.0774815 1.0476514 0.8915719 1.0779313
000050 92 01 63 3f 43 d5 81 3f 2f 0b 73 3f 57 0c 70 3f
       0.8867427 1.0143207 0.9493894 0.9376883
000060 26 59 8e 3f 14 db 66 3f 57 55 6d 3f 56 23 8d 3f
       1.1120956 0.90178037 0.92708343 1.1026409
000070 55 2c 77 3f 41 cd 59 3f 3a 27 60 3f 71 41 5a 3f
       0.9655202 0.8507882 0.87559855 0.85256106
000080 f0 96 95 3f 64 62 84 3f c9 4e 89 3f 21 90 7d 3f
       1.1686687 1.0342526 1.0727168 0.9904805
000090 c4 da 5f 3f 1a 77 78 3f af 13 3d 3f 0a 3a 90 3f
       0.87443185 0.97056735 0.7385816 1.1267712
0000a0 5d 30 64 3f 32 25 58 3f e8 f9 62 3f e8 b0 92 3f
       0.89136297 0.84431756 0.88662577 1.1460238
0000b0 cb bf 67 3f f1 42 80 3f 21 90 82 3f c5 27 8c 3f
       0.9052703 1.0020429 1.0200235 1.0949637
0000c0 ed 85 55 3f 2a 90 88 3f 71 59 57 3f 50 5e 7a 3f
       0.8340748 1.0668995 0.8412085 0.9780016
0000d0 32 81 79 3f a1 d2 75 3f 4b c8 88 3f 81 96 8d 3f
       0.9746276 0.9602452 1.0686125 1.1061555
0000e0 a6 86 93 3f f3 17 86 3f 0d 8a 8e 3f 0d 4b 6a 3f
       1.1525466 1.0476059 1.113588 0.9152077
0000f0 91 46 65 3f 4c 83 82 3f a3 63 5e 3f 85 61 5e 3f
       0.895608 1.0196319 0.86870784 0.86867553
000100 e8 6a 78 3f cc 48 8c 3f f1 5a 8c 3f 84 c6 88 3f
       0.97038126 1.0959716 1.0965253 1.0685582
000110 59 aa 72 3f ea d0 57 3f cd 7c 93 3f e8 71 73 3f
       0.9479118 0.8430315 1.1522461 0.9509568
000120 1e 82 9a 3f 8d 4a 5c 3f c1 37 8f 3f 01 29 93 3f
       1.2070959 0.86051255 1.118889 1.1496888
000130 39 b7 8a 3f 51 58 5b 3f e7 4f 7f 3f bf 8f 60 3f
       1.0837165 0.85681635 0.99731296 0.8771934
000140 70 71 6c 3f c6 65 71 3f dd 0f 6c 3f 77 22 95 3f
       0.9236059 0.9429592 0.92211705 1.1651143
000150 64 00 71 3f 25 8a 79 3f 1f db 79 3f b3 96 87 3f
       0.9414122 0.97476417 0.9759998 1.0592865
000160 b0 86 5d 3f b8 64 84 3f 58 23 82 3f 96 57 88 3f
       0.8653364 1.0343237 1.0167036 1.0651729
000170 9c 1d 79 3f 23 7d 7a 3f fc cb 8e 3f 76 fa 71 3f
       0.97310805 0.97847193 1.1156001 0.945228
000180 de 73 60 3f d7 9c 85 3f 9f 71 96 3f d0 e2 4a 3f
       0.876768 1.0438489 1.1753424 0.7925234
000190 45 ba 84 3f bb cb 62 3f a4 66 85 3f 1b d9 6e 3f
       1.0369345 0.8859212 1.0421948 0.93300027
0001a0 ed 65 7a 3f ae f4 8f 3f 85 eb 7f 3f a5 3b 6d 3f
       0.97811776 1.1246545 0.9996875 0.92669135
0001b0 10 7b 5c 3f f7 8b 8b 3f f3 98 7e 3f f5 c4 87 3f
       0.8612528 1.0902089 0.9945213 1.0606982
0001c0 28 0e 83 3f 25 33 58 3f ea c5 65 3f ba e5 6e 3f
       1.0238695 0.8445304 0.8975512 0.93319285
0001d0 89 40 7b 3f aa e5 73 3f 96 e6 88 3f 0e 9a 86 3f
       0.9814535 0.95272315 1.0695369 1.0515764
0001e0 5a 6e 63 3f 86 31 79 3f a2 77 73 3f 86 fc 71 3f
       0.8884026 0.9734119 0.9510442 0.94525945
0001f0 35 10 6a 3f 5a f7 88 3f e2 7c 62 3f 2d 7a 87 3f
       0.9143098 1.0700486 0.88471806 1.058416
000200 b5 92 89 3f ac 2e 69 3f 92 26 83 3f 75 ac 84 3f
       1.0747896 0.9108684 1.0246146 1.036513
000210 c6 88 65 3f fc 33 6b 3f 72 24 80 3f 00 d4 7d 3f
       0.89661825 0.91876197 1.0011122 0.9915161
000220 69 ae 5d 3f e1 85 7e 3f bf 56 82 3f ad d6 6c 3f
       0.86594254 0.99423033 1.0182723 0.9251507
000230 b5 33 86 3f 7d 1c 86 3f 0b a9 87 3f a4 83 5d 3f
       1.048453 1.0477444 1.0598463 0.8652899
000240 53 46 89 3f d5 08 83 3f 19 43 74 3f c9 df 8e 3f
       1.0724586 1.023707 0.9541488 1.1162044
000250 45 81 84 3f 14 86 61 3f 7c f1 6a 3f af 61 85 3f
       1.035195 0.8809521 0.91774726 1.0420436
000260 5a 98 74 3f 76 69 53 3f fa 6a 79 3f bc ef 83 3f
       0.9554497 0.82582796 0.9742886 1.0307536
000270 c5 39 62 3f fb 79 78 3f 12 89 79 3f ed 82 73 3f
       0.883694 0.9706113 0.9747478 0.9512165
000280 ed 9f 4f 3f 4a 43 60 3f 3a 89 80 3f 49 10 75 3f
       0.811034 0.87602675 1.0041878 0.95727974
000290 f1 95 67 3f e4 17 64 3f 48 06 87 3f a3 4c 7b 3f
       0.9046317 0.89098954 1.0548792 0.98163813
0002a0 f7 d6 70 3f 74 96 8e 3f 4c cb 9d 3f 77 d2 75 3f
       0.9407801 1.1139665 1.2327666 0.9602427
0002b0 5f b4 63 3f 2b f1 8d 3f 1c 2d 7f 3f 8c cd 7a 3f
       0.889471 1.1089224 0.99678206 0.9796989
0002c0 fe 20 77 3f 33 b8 83 3f b3 d7 8f 3f ba d7 5d 3f
       0.9653472 1.0290588 1.1237701 0.866573
0002d0 83 b7 62 3f 64 3f 80 3f d0 6e 73 3f 06 f4 63 3f
       0.88561267 1.0019345 0.9509096 0.89044225
0002e0 a9 6b 71 3f d8 99 84 3f 5a d5 79 3f 14 63 7f 3f
       0.943049 1.0359449 0.97591174 0.99760556
0002f0 0a 46 82 3f e1 78 7c 3f 60 88 7c 3f e9 48 76 3f
       1.0177624 0.98621947 0.9864559 0.96205
000300 e1 29 75 3f 8b 97 83 3f df 8b 68 3f 58 36 82 3f
       0.9576703 1.0280622 0.90838426 1.0172834
000310 22 12 72 3f de 73 41 3f 4d 99 5f 3f 64 16 8f 3f
       0.9455892 0.75567424 0.87343293 1.1178708
000320 9f 0a 81 3f d6 80 84 3f 58 40 95 3f dd f0 4f 3f
       1.0081366 1.0351818 1.1660261 0.81226903
000330 0c 00 68 3f 29 a2 86 3f 9b 4e 91 3f 3c e0 72 3f
       0.9062507 1.0518237 1.1352113 0.94873405
000340 7e 4b 87 3f 64 6c 74 3f cd d5 6d 3f 3c 1c 5c 3f
       1.0569913 0.9547789 0.9290436 0.8598058
000350 02 1c 7d 3f 65 53 8d 3f 89 62 80 3f 21 b4 82 3f
       0.9887086 1.1041075 1.003007 1.0211221
000360 1e 87 90 3f 93 1f 60 3f 85 5b 88 3f 99 06 5b 3f
       1.1291234 0.8754818 1.065293 0.8555694
000370 ff ec 92 3f 14 15 70 3f 83 1c 8d 3f a7 6c 7f 3f
       1.1478575 0.9378216 1.1024326 0.99775165
000380 be a6 6f 3f 29 51 79 3f 77 67 77 3f d8 28 7b 3f
       0.93613803 0.97389466 0.9664225 0.981092
000390 f1 a3 76 3f 55 4a 64 3f 77 ac 59 3f 26 1c 69 3f
       0.96343905 0.8917592 0.85028785 0.91058576
0003a0 fb 69 90 3f 20 8d 67 3f b1 9f 84 3f 88 8a 7c 3f
       1.1282343 0.90449715 1.0361234 0.9864888
0003b0 67 fd 73 3f aa 83 93 3f 5d 55 6c 3f f7 3d 74 3f
       0.95308536 1.1524556 0.92317754 0.9540705
0003c0 d4 46 71 3f b2 2b 7f 3f ac a3 6f 3f ea 8e 60 3f
       0.942487 0.9967605 0.9360912 0.8771807
0003d0 36 c1 70 3f 85 e8 4d 3f 38 73 6f 3f b4 fa 94 3f
       0.94044816 0.8043292 0.93535185 1.1639009
0003e0 7e fe 6a 3f 82 9a 6f 3f cb 15 86 3f 53 6f 77 3f
       0.91794574 0.93595135 1.0475401 0.9665424
0003f0 7b ff 70 3f db ef 80 3f b7 60 8b 3f a3 d2 8b 3f
       0.9413983 1.0073198 1.088889 1.0923656

net.1.bias f4 [512]
000000 47 ac fc bd 88 87 df bd 4d 37 be be 01 c5 6f bd
       -0.12337547 -0.109145224 -0.37151566 -0.058537487
000010 64 b5 33 3d 05 f0 ef bc d3 d4 cf bd 03 c4 9a bb
       0.04387416 -0.029289255 -0.10148015 -0.0047230734
000020 84 4b c3 bd b0 b1 08 bd 81 ea 21 bd c7 2f e4 bd
       -0.09535888 -0.03337258 -0.03953028 -0.11141925
000030 eb 8c 1f bd 27 cc 51 be c4 30 f0 bc df 97 89 bc
       -0.03895275 -0.20488034 -0.029320128 -0.01679605
000040 18 d9 0b be 27 ae d7 bc 41 c4 74 bd 8e cf 27 bd
       -0.13657033 -0.02632816 -0.059757475 -0.040969424
000050 50 cd fe bc b6 dc 26 be 5c 6b e3 3d c3 85 1b bc
       -0.03110376 -0.16295132 0.111044616 -0.0094923405
000060 cc 76 89 be 12 83 ff bd 32 f4 16 bd 4f 58 c1 bc
       -0.26848447 -0.124761716 -0.036853977 -0.02360168
000070 4e 87 a7 bd ec eb aa bd c3 13 c5 bd e0 f6 ae bd
       -0.08180104 -0.0834578 -0.0962291 -0.085431814
000080 0b c7 18 3b 58 4f 4e be 49 21 94 be 03 44 b7 3c
       0.0023311998 -0.20147455 -0.28931645 0.022371298
000090 89 b3 01 be 09 13 a8 bc 2e 60 71 be b6 87 e7 3d
       -0.12666143 -0.02051689 -0.23571846 0.11305182
0000a0 2d 50 0a be 5d be c4 bd 46 41 e5 bd 70 62 e9 3c
       -0.13507147 -0.096066214 -0.111940905 0.028489321
0000b0 4d 62 8d bd a6 b0 b1 3d f4 ac b8 3d 97 a8 8f bc
       -0.06903515 0.08676271 0.09017363 -0.017536445
0000c0 43 c6 30 be d3 d1 0f be 4b 3f 20 be 37 93 33 bd
       -0.17263131 -0.14044885 -0.15649144 -0.043841567
0000d0 dc 59 ab be fe a7 0b 3c 80 c5 f1 bd d8 ba 5a be
       -0.33466995 0.008523939 -0.11805248 -0.21360338
0000e0 12 59 1a be d1 34 4f be fa 45 df be ec af b2 bd
       -0.1507304 -0.20234992 -0.43608075 -0.08724961
0000f0 55 1a b8 bd 99 5b fb bd 53 28 e7 bd 96 60 84 bd
       -0.089893974 -0.1227333 -0.11286988 -0.06463735
000100 d6 63 0e be e5 c6 03 3e 11 09 69 bd 6b 17 3a be
       -0.13905272 0.12868841 -0.056893412 -0.18172996
000110 62 6b de 3b dc 78 a5 bd ae c5 82 bd 47 c2 e2 bc
       0.0067877034 -0.08079693 -0.06385361 -0.02768053
000120 02 4b 41 be 73 25 ee bd 7e e7 a3 3d 3b 45 40 bd
       -0.1887627 -0.116282366 0.08003138 -0.046941023
000130 8a 88 c4 be cd 53 13 be 65 e1 24 be 7d fa 26 be
       -0.3838542 -0.14387436 -0.16101606 -0.16306491
000140 a0 91 e6 3b 81 71 7c be 1e e1 9c bd 8f a9 3d be
       0.007036403 -0.24652673 -0.07660125 -0.18521713
000150 c0 37 1f bd 39 3f a6 3b 01 24 6f be 7f 9f 60 3d
       -0.038871527 0.0050734547 -0.23353578 0.054839607
000160 e2 d3 34 be bc 7d d0 3d 77 9b a9 bd a2 c9 92 3d
       -0.17658952 0.10180232 -0.08281606 0.07167365
000170 8a c4 3c bc d4 92 fa bd 0b c2 92 be 94 7b ad bd
       -0.011521468 -0.122350365 -0.28663668 -0.08470836
000180 0e 41 f3 bd 69 b6 a2 be 93 2e e1 3d 7c 2a 6c be
       -0.118776426 -0.31779793 0.109952115 -0.23063082
000190 99 c1 44 be 8f 46 f9 bd 1d 92 bf bc 31 85 05 be
       -0.19214477 -0.12171661 -0.023385102 -0.1303909
0001a0 8e 5b 2b 3d 94 e6 9b 3c 00 e7 8e bd e9 d1 15 be
       0.04183536 0.019030847 -0.069776535 -0.14630856
0001b0 dd b9 5a be 59 4d 69 be f6 39 e2 bd e7 9e 5a be
       -0.21359964 -0.22783412 -0.110462114 -0.21349679
0001c0 fa 31 90 3c cc 3e 08 be 2c 9e 0f bd 00 50 08 bd
       0.017601956 -0.13305205 -0.035062954 -0.03327942
0001d0 89 40 49 bd 55 1a 53 be 76 59 54 be d3 8d 6d 3d
       -0.04913381 -0.20615514 -0.20737252 0.057996582
0001e0 0a 3d 46 be 6a 54 c4 3d 3b 0e 52 bd c2 d8 9d bd
       -0.19359222 0.09586413 -0.051283102 -0.07707359
0001f0 a0 57 c6 bd 8d 39 0d 3d 23 91 b2 bd 87 56 8b 3d
       -0.09684682 0.034478713 -0.08719089 0.06803613
000200 be 07 85 bd ba dc d7 bd 68 39 fd bd 3a be ed bc
       -0.06495617 -0.10540147 -0.12364465 -0.029021371
000210 16 df 13 bd 8b 29 93 bd 52 32 2d 3c 1d 45 bd bc
       -0.036101423 -0.07185658 0.010571079 -0.023104245
000220 fd 15 45 be 54 43 12 3e 10 8c ac 3d a2 2e ba bd
       -0.19246669 0.14283496 0.08425152 -0.09090926
000230 1e 18 3a bd 90 22 30 3b 08 f0 4d be 93 f7 c4 bd
       -0.045433156 0.002687607 -0.20111096 -0.096175335
000240 6c 9a 90 be 0f 7a cf bd e6 a9 9f 3c 0b 13 fa bd
       -0.28242815 -0.10130703 0.019490194 -0.122106634
000250 c7 04 20 bd c4 2e da bd 8d 12 b1 bd 45 48 3f bd
       -0.039067056 -0.10653451 -0.086461164 -0.04669978
000260 cc 55 37 3d a1 d5 09 be 2a 43 3d bd db 14 58 3d
       0.044759557 -0.13460399 -0.04620663 0.052754264
000270 d8 85 e8 bd 4f 73 48 bd ff 39 04 3c 57 2c 70 be
       -0.11353654 -0.04893809 0.008070468 -0.23454414
000280 ac 6d 58 be eb d4 7e be 05 d0 f9 bd 94 af 46 be
       -0.21135587 -0.2488591 -0.1219788 -0.19402915
000290 da d7 22 be 98 37 79 bd 13 79 f2 bd 9c ec e6 bc
       -0.15902653 -0.060844034 -0.11839499 -0.028188996
0002a0 de e4 f6 bd 0c 27 2f be 5d 99 09 3e 57 ec 35 bc
       -0.12055372 -0.17104739 0.1343741 -0.011103711
0002b0 ef 60 ae bd 9b fc c1 be d6 d3 80 bc bc 6c 02 be
       -0.08514582 -0.37888035 -0.015726011 -0.12736791
0002c0 48 18 de bd 43 2e b4 bc a9 d2 79 bd 54 0a 32 bd
       -0.10844475 -0.021994716 -0.060991917 -0.04346688
0002d0 d9 54 50 bd 90 1d d6 be 8c e0 f8 bd 09 23 88 bc
       -0.050862167 -0.4181943 -0.12152204 -0.016618269
0002e0 70 a6 c1 bd 2d 8b 7d 3c 26 81 aa 3c 87 0f 2b bd
       -0.094555736 0.015475077 0.020813536 -0.041762855
0002f0 51 3d b6 bd b9 4b e1 bc e7 55 44 bd a3 18 f8 bc
       -0.08898414 -0.027501928 -0.047933485 -0.030285185
000300 67 92 19 be 14 29 8c be 5b 30 9e bd bf 1e 21 bd
       -0.14997254 -0.2737509 -0.07724067 -0.039335962
000310 c0 5d 05 be cf 5e 16 be 23 7e 46 be da 48 9f bd
       -0.13024044 -0.14684604 -0.19384055 -0.07777567
000320 61 8c e6 bd ef 96 96 bd 72 e8 d8 bd 6a 33 29 be
       -0.11257244 -0.07353007 -0.105912104 -0.16523519
000330 a8 fa 22 3d cd a5 10 3d 13 1b 7e be 95 51 3b bd
       0.039789826 0.03531437 -0.24815015 -0.0457321
000340 d8 fd 24 be 1e 91 3d be e9 91 85 be ba 8d 8c bd
       -0.16112459 -0.18512389 -0.26087883 -0.0686297
000350 a9 e6 9c 3c ad 31 36 3d 59 f4 2d bd ba b3 9a 3a
       0.019152956 0.04448097 -0.042469356 0.001180283
000360 71 8a 4d bc 6f 2d 13 bd fe 3b e6 bd cc f2 d3 bd
       -0.012545214 -0.035932 -0.11241911 -0.10349044
000370 67 bc 94 be f0 17 4c be 4a 7b 15 be d0 b9 97 bd
       -0.2904999 -0.19931006 -0.14597812 -0.07408488
000380 fd 2f 44 be aa f0 18 3d 46 e8 03 3d ce e8 91 bd
       -0.19158931 0.03733889 0.032203935 -0.07124482
000390 50 3b 29 be e7 3c 44 be c3 82 b8 bd 42 ec 92 bd
       -0.16526532 -0.19163857 -0.09009316 -0.07173969
0003a0 be 5f 84 be d8 f0 97 bd 03 25 06 be 97 32 fa bd
       -0.25854295 -0.07418984 -0.13100056 -0.122166805
0003b0 8c c3 53 be 81 2d 0a be 89 09 47 bd c6 51 98 bd
       -0.20680064 -0.13493921 -0.048593078 -0.07437472
0003c0 f0 0c f0 bd 1f 58 0b bd 8b 54 a9 3c 49 5e b5 bd
       -0.11721218 -0.034019586 0.020670196 -0.08855874
0003d0 61 73 3a 3c c4 dc f8 bd 73 81 04 be 92 dc b4 be
       0.011380048 -0.12151483 -0.12940006 -0.35324532
0003e0 0e 28 1d be e5 9f 5c be a7 68 74 3d e2 90 5e bd
       -0.15347311 -0.2154537 0.059670117 -0.05433739
0003f0 87 3b 8d bc fc 86 47 be 5a b1 85 bd dc 7a ba bd
       -0.017240299 -0.19485086 -0.06527968 -0.09105465

net.1.running_mean f4 [512]
000000 5c 56 a1 bd 54 53 cf be 3c 83 36 3e 20 a9 35 3e
       -0.078778 -0.40493262 0.178235 0.17740297
000010 83 62 3d be a7 f1 ab be 27 28 c1 bd bd 7c e1 3c
       -0.1849461 -0.33582804 -0.094314866 0.0275253
000020 9a 44 12 be e4 20 b0 3e d5 e0 c7 3e ab 7e c2 3e
       -0.14283982 0.34400094 0.3903872 0.37987265
000030 44 0c d2 bc 98 61 c3 3b 2e 9e 3e bd 81 19 24 be
       -0.025640614 0.005962562 -0.04653757 -0.16025354
000040 e5 8c 3d bd 34 f6 f1 3c dd c5 76 3e 68 6d b2 be
       -0.046276946 0.029536344 0.24098916 -0.34849095
000050 e8 b4 fc bc 88 98 12 3e f6 0e b7 bd 31 54 b1 bd
       -0.030847982 0.14315999 -0.089384004 -0.08658636
000060 da 39 97 3e 1e 76 e9 bd 0f c7 0a 3e 85 8c 8d be
       0.29536325 -0.11399482 0.13552497 -0.2764627
000070 dc 20 1b be 37 62 17 bd 5f c9 36 be a5 a0 11 3e
       -0.15149254 -0.0369589 -0.17850254 0.14221437
000080 d4 32 3d 3e 83 7e df 3d 3d f0 e5 3d 19 ee 1a bd
       0.1847642 0.10912802 0.112274624 -0.037824724
000090 4e a5 02 bf 8e 40 16 3e b3 d0 e7 3d f9 45 6d 3c
       -0.51033485 0.14673063 0.11319103 0.014482015
0000a0 eb 2a 0c 3f 3f d6 d5 bd 25 16 6e bd c9 9d d5 bb
       0.5475299 -0.10441255 -0.058126587 -0.0065190536
0000b0 bd 27 51 be 82 8d cd ba c0 35 af 3d 8c 95 19 be
       -0.20425315 -0.0015682431 0.08555174 -0.14998454
0000c0 7b 61 a8 bc ac f2 00 bd 24 c9 27 3e 0d 18 c7 bc
       -0.020554295 -0.03148143 0.16385323 -0.02430346
0000d0 34 11 9d 3d b4 65 90 be c4 81 b9 bd 90 d6 35 be
       0.07669297 -0.28202593 -0.09057954 -0.1775763
0000e0 6d 44 33 3e 38 0b a3 be 5a fb 84 3e a5 52 50 3d
       0.17506571 -0.31844497 0.25973016 0.050860066
0000f0 45 70 e8 3b 3e 09 ec bb a7 c4 c5 3d 6a 6d f6 bd
       0.0070934617 -0.00720325 0.09656649 -0.12032588
000100 33 e3 f6 3d 2a d5 10 3e d8 95 0d be ad db 5d be
       0.120550536 0.14143816 -0.13826692 -0.21665831
000110 7d 83 9c 3d f8 e3 50 3d 83 2c 99 3e ca b3 92 be
       0.07642267 0.050998658 0.29916772 -0.28652793
000120 81 03 74 be 70 18 a0 be 2b d5 ab bd 2b ca 40 3e
       -0.23829462 -0.31268644 -0.08390268 0.18827121
000130 29 00 93 3e c8 54 81 be 53 dd 8c 3e f9 b1 54 bc
       0.2871106 -0.25259995 0.27512607 -0.012981885
000140 5e e9 57 3e 2e fa 7a 3e 58 23 2a 3d b0 8a e2 bd
       0.21085116 0.24509498 0.041537613 -0.11061609
000150 b5 c8 92 3e 60 f5 5f 3e 28 96 12 3e a3 4c 83 be
       0.28668752 0.21870947 0.14315093 -0.25644407
000160 cd cb 6f 3e ca 94 01 bb 70 d7 55 bc 3e 8c 10 be
       0.23417588 -0.0019772523 -0.013051853 -0.14115998
000170 46 a9 ef be 6b be ab bd 76 95 2d be 05 be 6b be
       -0.46808833 -0.08385929 -0.16951546 -0.23021705
000180 c2 a0 52 be 78 95 99 bd 97 54 d1 bd 41 98 cd bd
       -0.20569137 -0.07499212 -0.10221212 -0.10038806
000190 a1 6c a0 3e ad c9 b7 be 91 34 b2 be 90 6b bb be
       0.31332877 -0.35896054 -0.3480573 -0.366055
0001a0 1c 51 04 be 14 ec 70 3c 42 af 02 3f ae a2 73 3d
       -0.12921566 0.014704723 0.5104867 0.059481315
0001b0 14 8a cd 3d ae 91 48 bd e9 b5 70 3e a3 de db 3b
       0.10036102 -0.048967056 0.23506893 0.00670989
0001c0 cd df 99 3e fc d2 e6 3e 42 da b2 be da 86 5b bd
       0.3005356 0.45082843 -0.34932142 -0.0535954
0001d0 12 f7 c5 3e ca 8f e2 bd 01 8c ee 3e a7 13 7c be
       0.38665062 -0.11062582 0.4659119 -0.24616872
0001e0 bd 0b 18 3e 01 b2 d0 be 37 9c 9b be c5 3e 28 3d
       0.14848228 -0.40760806 -0.3039262 0.041075487
0001f0 05 35 2d 3e 22 81 c9 be d4 18 76 3e 60 0a 38 bd
       0.16914757 -0.39356333 0.24032909 -0.04493177
000200 64 cf 4e 3d 98 cb b8 be 14 6c 0f 3c d0 78 8d be
       0.05049075 -0.3609283 0.008753795 -0.27631235
000210 6a b2 e5 3e b7 2a fd 3e 1b 81 47 3c ae 6e 05 3e
       0.44862682 0.4944665 0.012176777 0.13030502
000220 9b f9 23 3e bb f7 1d bf 10 89 05 3e e2 7c b6 bc
       0.16013186 -0.6170613 0.13040566 -0.022276346
000230 98 13 0b be c2 e5 9e be e0 ba 1e be c6 8f b3 3c
       -0.13581693 -0.31034666 -0.15500975 0.021919142
000240 34 7e 0a 3d 13 be 82 be 16 56 dd bd 37 03 8d be
       0.033811763 -0.2553564 -0.10807435 -0.27541515
000250 5e d6 b6 3e 34 99 04 3b fc 2f 44 bd a8 86 83 be
       0.35710424 0.0020232918 -0.047897324 -0.25688672
000260 94 27 88 bd 98 a1 4a be 46 4e 7b be 41 9a 72 be
       -0.06648174 -0.19788206 -0.24541578 -0.23691656
000270 0c c7 07 be 12 cc 01 3e c3 80 3c 3e 2b 34 7d 3e
       -0.13259524 0.12675503 0.18408494 0.24726932
000280 65 c0 3a be c3 b6 89 3e 29 35 70 bd 84 72 7d 3e
       -0.18237455 0.2689725 -0.058644447 0.24750715
000290 5a af 29 3d 97 19 d0 be 28 18 21 3e 67 ad 36 3e
       0.041426994 -0.40644524 0.15731871 0.17839585
0002a0 ca bd 83 3d e0 81 59 bd 1a 65 c8 3e 4f 83 e0 bc
       0.06432684 -0.053102374 0.39139634 -0.027406363
0002b0 b6 95 40 be bc 54 1d 3e bf d7 27 bd 86 23 a0 3d
       -0.1880711 0.15364355 -0.040977236 0.078192756
0002c0 c9 30 ff 3d c6 8d 94 bd dc 9a 8a 3e 72 7c 7a 3e
       0.12460477 -0.07253604 0.27071273 0.24461535
0002d0 1d 7e e9 be 5e be e8 3d 9b 58 59 3e 96 21 a1 be
       -0.4560403 0.11364435 0.21225207 -0.31470937
0002e0 c7 b8 2d be 1b 78 40 3e ec 77 11 3f f9 5d 0c be
       -0.16965018 0.18795817 0.5682361 -0.13707723
0002f0 ee 8e 5a be 9f 2e c6 3d 12 0a 92 3e e0 14 02 3b
       -0.21343586 0.09676861 0.28523308 0.0019848868
000300 22 85 b1 bc 84 22 5a 3e ec 9d f5 bc d0 68 ee bd
       -0.021669928 0.21302229 -0.02998253 -0.11641085
000310 7c e8 3b bd c7 67 0f 3d fd 84 77 bd 79 37 20 be
       -0.04587601 0.03501108 -0.060429562 -0.15646161
000320 51 86 b5 3e c9 e2 26 3e 7c a8 c6 3d 06 ca ed 3d
       0.35454038 0.16297449 0.097001046 0.116107985
000330 0e 1c 86 be 17 c2 28 3e 77 da 95 3c 99 a3 c2 3d
       -0.2619328 0.1648029 0.018292649 0.0950386
000340 12 1e 91 be 12 19 21 be b0 11 e9 3d be bd fd bd
       -0.28343254 -0.1573222 0.11380327 -0.12389706
000350 97 f6 db 3c e6 cd 07 3e f0 32 2a 3e bf db 7b 3d
       0.026850982 0.13262138 0.16620994 0.061488863
000360 bb c5 ed 3c 1e 17 e8 be c4 24 61 3e ab e0 06 bc
       0.02902495 -0.45330137 0.21986681 -0.008232276
000370 5a 5d b5 3d f1 0a da 3d 63 8e 04 be cb 16 51 3d
       0.08855696 0.10646618 -0.12944941 0.051047128
000380 dd 1b 5c 3e fe d4 1e 3e 71 c9 2f bd bc 52 6c bc
       0.21495004 0.15510938 -0.04291672 -0.014424022
000390 34 81 12 bd 9e ed 83 be 97 9e d3 bd 18 c5 58 be
       -0.03576775 -0.25767225 -0.10332983 -0.21168935
0003a0 3c 54 52 bd b1 96 44 be 5e 9b c6 be 50 32 43 3e
       -0.051349863 -0.19198109 -0.3879041 0.19062161
0003b0 ff 57 62 3e 88 6a 2a 3d f4 b7 ad be 6a 3a 55 bd
       0.2210388 0.041605502 -0.33929408 -0.05205766
0003c0 a8 b0 10 3e 2c 65 86 bd d0 1a b3 be 33 b2 85 bc
       0.14129889 -0.06562266 -0.34981394 -0.016320324
0003d0 3f 67 28 3e b4 d0 94 3d a4 28 a4 be 6c 48 1d be
       0.16445635 0.072663695 -0.32062256 -0.15359658
0003e0 c7 38 2a bd 50 da 19 be e1 b1 89 bb 9d e8 3d bd
       -0.041558053 -0.15024686 -0.004202113 -0.046364415
0003f0 d9 d7 3e 3e 55 ac 90 bd 80 56 9f bd c1 50 4e bd
       0.18637027 -0.0706412 -0.077801704 -0.05036998

net.1.running_var f4 [512]
000000 cc af d2 3e 0f 5d 0a 3f ec ff bb 3e d0 7c ee 3e
       0.41149747 0.54048246 0.3671869 0.465796
000010 8a 7a 5a 3f 08 a8 0e 3f e5 77 2d 3f ec 88 dd 3e
       0.8534323 0.55725145 0.6776107 0.43268526
000020 ee c8 32 3f 76 43 af 3e 0e 90 94 3e 2a 6e a6 3e
       0.69837844 0.34231156 0.29016155 0.32505924
000030 cf 22 2f 3f 50 fb 96 3e 1b 55 05 3f b3 1f 1d 3f
       0.6841249 0.2948861 0.52082986 0.61376494
000040 ad 9b 5f 3f d3 c5 b7 3e d9 58 3b 3f bf d0 13 3f
       0.8734692 0.35893115 0.73182446 0.57740396
000050 18 93 13 3f 80 b9 9e 3f 96 f6 b8 3e 23 9a e3 3e
       0.5764632 1.240036 0.3612563 0.44453534
000060 9f 51 65 3e a5 d5 ac 3e ee 8a 9a 3e 80 c3 f7 3e
       0.22394417 0.33756748 0.3018412 0.48391342
000070 e6 6f 70 3f d8 17 de 3e f4 92 a6 3e ba 2a 04 3f
       0.93920743 0.43377566 0.3253399 0.51627696
000080 25 0c 1a 3f a9 91 58 3f 6a 06 6e 3e 6c a1 26 3f
       0.6017478 0.8459726 0.23244634 0.6509006
000090 e5 3e bd 3e 7a 11 dd 3e ba 0a 8a 3e 36 3a 18 3f
       0.36962047 0.43177396 0.2696131 0.5946382
0000a0 72 82 ce 3e a0 44 9d 3e 19 d1 f8 3e d3 1a 1f 3f
       0.40333897 0.3071642 0.4859703 0.62150306
0000b0 f8 67 1b 3f 46 55 4b 3f 63 21 3e 3f 58 6d b9 3e
       0.6070552 0.7942699 0.74269694 0.36216235
0000c0 d8 15 96 3e de 55 00 3f e7 fb b7 3e 01 02 05 3f
       0.2931354 0.5013102 0.35934374 0.5195618
0000d0 41 74 8d 3e c0 28 ea 3e fe 77 33 3f 8e 23 9b 3e
       0.27627757 0.45734215 0.7010497 0.30300564
0000e0 15 74 fd 3e ad 5f 8e 3e 61 75 99 3e f2 b1 b7 3e
       0.49502626 0.2780737 0.29972365 0.3587795
0000f0 d2 de 8e 3e e2 01 b5 3e 6a 83 a2 3e 2a 07 c2 3e
       0.27904373 0.35353 0.31740886 0.3789609
000100 6b c7 e5 3e 71 1c d3 3e aa d3 e3 3e bf 4f 35 3f
       0.44878706 0.41232637 0.44497424 0.7082481
000110 e6 9f 08 3f 9f 92 be 3e fe d8 f9 3e 91 19 0d 3f
       0.53368986 0.37221238 0.48798364 0.55117136
000120 16 55 3c 3f 87 da 60 3e 18 35 53 3f 2f 83 25 3f
       0.7356733 0.21958362 0.8250289 0.64653295
000130 fd c3 93 3e 2c 43 1c 3f 61 a1 a2 3e f9 d8 b0 3e
       0.28860465 0.61039996 0.31763747 0.34540537
000140 40 f7 e4 3e 6c e5 95 3e fe 3a 13 3f 39 3e 28 3f
       0.44719887 0.29276597 0.5751189 0.65719944
000150 90 46 d8 3e c8 4c ae 3e 68 df 83 3e e1 0b 10 3f
       0.42241335 0.34042954 0.25756383 0.56268126
000160 9a fd b9 3e 13 d8 be 3e 78 00 86 3e 58 d3 78 3e
       0.36326295 0.37274227 0.26172233 0.24299371
000170 d7 b6 e0 3e b2 3f dc 3e bd e9 8a 3e cf 6d 06 3f
       0.43889496 0.43017346 0.27131453 0.52511305
000180 13 06 ee 3e 88 1a 92 3e 1e b2 6a 3f ba 22 a4 3e
       0.4648901 0.28535867 0.91678035 0.32057744
000190 47 77 b8 3e 82 e0 03 3f 0e 6c 4f 3f 3d 2d 90 3e
       0.360285 0.51514447 0.81024253 0.28159514
0001a0 95 ff bd 3e 90 81 e4 3e 2c 07 d7 3e c4 71 8d 3e
       0.37109056 0.44630098 0.4199766 0.2762586
0001b0 50 61 bc 3e a8 93 83 3f cf 18 26 3f 59 fc 42 3f
       0.36792994 1.0279436 0.64881605 0.761663
0001c0 ce ba ea 3e 22 67 1b 3f f6 14 bf 3e b3 f7 00 3f
       0.45845646 0.60704243 0.3732068 0.5037796
0001d0 e9 6c d0 3e 34 1a cf 3e 1b 27 66 3f 80 71 3c 3f
       0.40708092 0.4044968 0.8990342 0.7361069
0001e0 e9 70 2c 3f 9d b8 0b 3f 7d 89 7c 3e 16 08 ba 3e
       0.6735979 0.5457857 0.24661823 0.36334294
0001f0 b2 60 43 3f ba 1f 81 3f 3e 87 91 3e c0 63 1a 3f
       0.7631942 1.0087807 0.28423494 0.60308456
000200 1d d0 25 3f 89 fe 76 3e 3b d1 35 3f f2 d8 d8 3e
       0.6477068 0.24120535 0.71022385 0.42353016
000210 7c 63 aa 3e b8 ec cd 3e 60 27 28 3f ee 21 eb 3e
       0.33279026 0.40219665 0.6568508 0.45924324
000220 01 cd a6 3e 5d b7 d5 3e 9e 5b 22 3f 3c 93 08 3f
       0.3257828 0.41741458 0.63421047 0.5334966
000230 4d a3 1e 3f d1 26 ce 3e d2 e6 81 3f 39 23 ac 3e
       0.6196793 0.4026399 1.0148566 0.33620623
000240 5f f6 59 3f a7 e9 85 3f e8 a9 6f 3f 55 9e 31 3f
       0.8514156 1.046193 0.9361863 0.6938222
000250 6f 2a 90 3e 25 e3 9c 3e af 34 df 3e 92 5b d1 3e
       0.28157374 0.30642048 0.43594882 0.40890175
000260 66 3c 1d 3f 1b be 9f 3e dd 8b c1 3e 38 b4 1e 3f
       0.61420286 0.31199726 0.3780202 0.6199374
000270 18 1b c0 3e 72 fa 21 3f 72 5f cf 3e a0 e4 b3 3e
       0.3752067 0.63272774 0.40502506 0.35135365
000280 89 4a d6 3e b4 cc aa 3e 39 6d a9 3e 8d dc d7 3e
       0.4185374 0.333593 0.33091143 0.42160454
000290 5f 5e bc 3e 2e cb ee 3e 65 3f ad 3e 30 b6 0f 3f
       0.3679075 0.4663939 0.3383743 0.5613737
0002a0 43 d1 36 3f c8 cc 9a 3e 1e 3c 63 3f 85 ae e7 3e
       0.7141306 0.3023436 0.88763607 0.45250335
0002b0 5b 09 af 3e a8 7d b2 3e de 89 a8 3e ac 9e 38 3f
       0.34186825 0.34861493 0.32917684 0.72117114
0002c0 2b 25 ee 3e ab 77 5a 3f d8 4f 14 3f 64 13 ad 3e
       0.46512732 0.8533885 0.5793433 0.33803856
0002d0 83 ea 1c 3f cf 29 7a 3e 3c e4 c7 3e d2 e4 1b 3f
       0.61295336 0.24430011 0.39041317 0.6089603
0002e0 c2 54 ac 3e cc 40 b7 3e 7d 4d fb 3e 23 55 ef 3e
       0.33658415 0.35791624 0.49082556 0.46744642
0002f0 fd e3 42 3f 4d 18 f6 3e 4a b2 07 3f ab 43 b4 3e
       0.7612913 0.48065415 0.5300642 0.35207877
000300 ed c9 b6 3e 72 d9 24 3f 8d 3e 3a 3f a7 00 06 3f
       0.35700932 0.64394295 0.72751695 0.52344745
000310 02 ce 17 3f 12 3b bc 3e c5 73 85 3e c3 40 bf 3e
       0.5929872 0.36763817 0.26064888 0.37354097
000320 41 7d a5 3e d1 00 22 3f e0 49 52 3f fd 89 9d 3e
       0.32322124 0.63282496 0.82143974 0.3076934
000330 5e 16 cc 3e ec 2a bb 3e 4c f8 7e 3e d2 3b 33 3f
       0.39860815 0.36556184 0.24899405 0.70013154
000340 7e 7c 2e 3f 5d 2a ac 3e a6 50 5b 3f 01 1e 0b 3f
       0.6815871 0.3362607 0.85669935 0.5434266
000350 ff 49 cd 3e be c6 35 3f ca 68 97 3e 22 a3 1c 3f
       0.40095517 0.7100638 0.29572135 0.6118642
000360 c5 c5 8b 3f bb 6d 1b 3f b8 2f c4 3e 09 7f aa 3e
       1.091973 0.6071431 0.38317657 0.33300045
000370 11 d0 84 3e af 1b c9 3e f2 94 3e 3f 53 5d f0 3e
       0.25939992 0.39278933 0.7444602 0.469462
000380 33 f8 4f 3f 76 8c 8b 3f 04 ce fd 3e 2c 76 ae 3e
       0.81238097 1.090224 0.4957124 0.34074533
000390 30 6a 17 3f 07 66 b6 3e 83 91 89 3e 5b 22 00 3f
       0.59146404 0.35624716 0.2686883 0.5005242
0003a0 9b 70 58 3f 15 27 0b 3f bd e5 b2 3e 3f 28 97 3e
       0.8454682 0.5435651 0.349409 0.29522893
0003b0 20 47 93 3e 9e c6 56 3f c5 21 d0 3e 17 e2 ae 3e
       0.28765202 0.83896816 0.40650764 0.34156868
0003c0 34 a1 ca 3e 63 ed c2 3e 28 5e 91 3e dc c2 8e 3e
       0.39576113 0.38071737 0.28392148 0.2788304
0003d0 26 89 a9 3e c8 87 b8 3e e8 51 b3 3e 5d da 0b 3f
       0.33112448 0.36041093 0.35023427 0.5463007
0003e0 65 76 0e 3f ab 68 1a 3f 72 17 20 3f 8c 1d 22 3f
       0.55649406 0.6031596 0.62535775 0.63326335
0003f0 c5 39 eb 3e cc ea 47 3f bf a7 c4 3e d8 b6 4f 3f
       0.45942512 0.78092647 0.3840923 0.8113837
